{"format": "layers-model", "generatedBy": "keras v2.15.0", "convertedBy": "TensorFlow.js Converter v4.22.0", "modelTopology": {"keras_version": "2.15.0", "backend": "tensorflow", "model_config": {"class_name": "Functional", "config": {"name": "model", "trainable": true, "layers": [{"class_name": "InputLayer", "config": {"batch_input_shape": [null, 96, 96, 3], "dtype": "float32", "sparse": false, "ragged": false, "name": "input_1"}, "name": "input_1", "inbound_nodes": []}, {"class_name": "ZeroPadding2D", "config": {"name": "zero_padding2d", "trainable": true, "dtype": "float32", "batch_input_shape": [null, 96, 96, 3], "padding": [[3, 3], [3, 3]], "data_format": "channels_last"}, "name": "zero_padding2d", "inbound_nodes": [[["input_1", 0, 0, {}]]]}, {"class_name": "Conv2D", "config": {"name": "conv1", "trainable": true, "dtype": "float32", "filters": 64, "kernel_size": [7, 7], "strides": [2, 2], "padding": "valid", "data_format": "channels_last", "dilation_rate": [1, 1], "groups": 1, "activation": "linear", "use_bias": true, "kernel_initializer": {"module": "keras.initializers", "class_name": "GlorotUniform", "config": {"seed": null}, "registered_name": null}, "bias_initializer": {"module": "keras.initializers", "class_name": "Zeros", "config": {}, "registered_name": null}, "kernel_regularizer": null, "bias_regularizer": null, "activity_regularizer": null, "kernel_constraint": null, "bias_constraint": null}, "name": "conv1", "inbound_nodes": [[["zero_padding2d", 0, 0, {}]]]}, {"class_name": "BatchNormalization", "config": {"name": "bn1", "trainable": true, "dtype": "float32", "axis": [3], "momentum": 0.99, "epsilon": 1e-05, "center": true, "scale": true, "beta_initializer": {"module": "keras.initializers", "class_name": "Zeros", "config": {}, "registered_name": null}, "gamma_initializer": {"module": "keras.initializers", "class_name": "Ones", "config": {}, "registered_name": null}, "moving_mean_initializer": {"module": "keras.initializers", "class_name": "Zeros", "config": {}, "registered_name": null}, "moving_variance_initializer": {"module": "keras.initializers", "class_name": "Ones", "config": {}, "registered_name": null}, "beta_regularizer": null, "gamma_regularizer": null, "beta_constraint": null, "gamma_constraint": null}, "name": "bn1", "inbound_nodes": [[["conv1", 0, 0, {}]]]}, {"class_name": "Activation", "config": {"name": "activation", "trainable": true, "dtype": "float32", "activation": "relu"}, "name": "activation", "inbound_nodes": [[["bn1", 0, 0, {}]]]}, {"class_name": "ZeroPadding2D", "config": {"name": "zero_padding2d_1", "trainable": true, "dtype": "float32", "padding": [[1, 1], [1, 1]], "data_format": "channels_last"}, "name": "zero_padding2d_1", "inbound_nodes": [[["activation", 0, 0, {}]]]}, {"class_name": "MaxPooling2D", "config": {"name": "max_pooling2d", "trainable": true, "dtype": "float32", "pool_size": [3, 3], "padding": "valid", "strides": [2, 2], "data_format": "channels_last"}, "name": "max_pooling2d", "inbound_nodes": [[["zero_padding2d_1", 0, 0, {}]]]}, {"class_name": "Lambda", "config": {"name": "lrn_1", "trainable": true, "dtype": "float32", "function": ["4wEAAAAAAAAAAAAAAAEAAAAFAAAAUwAAAPMSAAAAdABqAWoCfABkAWQCZAONA1MAqQRO5y1DHOvi\nNho/5wAAAAAAAOg/KQLaBWFscGhh2gRiZXRhqQPaAnRm2gJubtoDbHJuqQHaAXipAHINAAAA+iIv\ncHJvamVjdC93b3Jrc3BhY2UvcHVibGljL21vZGVsLnB52gg8bGFtYmRhPkYAAADzAgAAABIA\n", null, null], "function_type": "lambda", "module": "__main__", "output_shape": null, "output_shape_type": "raw", "output_shape_module": null, "arguments": {}}, "name": "lrn_1", "inbound_nodes": [[["max_pooling2d", 0, 0, {}]]]}, {"class_name": "Conv2D", "config": {"name": "conv2", "trainable": true, "dtype": "float32", "filters": 64, "kernel_size": [1, 1], "strides": [1, 1], "padding": "valid", "data_format": "channels_last", "dilation_rate": [1, 1], "groups": 1, "activation": "linear", "use_bias": true, "kernel_initializer": {"module": "keras.initializers", "class_name": "GlorotUniform", "config": {"seed": null}, "registered_name": null}, "bias_initializer": {"module": "keras.initializers", "class_name": "Zeros", "config": {}, "registered_name": null}, "kernel_regularizer": null, "bias_regularizer": null, "activity_regularizer": null, "kernel_constraint": null, "bias_constraint": null}, "name": "conv2", "inbound_nodes": [[["lrn_1", 0, 0, {}]]]}, {"class_name": "BatchNormalization", "config": {"name": "bn2", "trainable": true, "dtype": "float32", "axis": [3], "momentum": 0.99, "epsilon": 1e-05, "center": true, "scale": true, "beta_initializer": {"module": "keras.initializers", "class_name": "Zeros", "config": {}, "registered_name": null}, "gamma_initializer": {"module": "keras.initializers", "class_name": "Ones", "config": {}, "registered_name": null}, "moving_mean_initializer": {"module": "keras.initializers", "class_name": "Zeros", "config": {}, "registered_name": null}, "moving_variance_initializer": {"module": "keras.initializers", "class_name": "Ones", "config": {}, "registered_name": null}, "beta_regularizer": null, "gamma_regularizer": null, "beta_constraint": null, "gamma_constraint": null}, "name": "bn2", "inbound_nodes": [[["conv2", 0, 0, {}]]]}, {"class_name": "Activation", "config": {"name": "activation_1", "trainable": true, "dtype": "float32", "activation": "relu"}, "name": "activation_1", "inbound_nodes": [[["bn2", 0, 0, {}]]]}, {"class_name": "ZeroPadding2D", "config": {"name": "zero_padding2d_2", "trainable": true, "dtype": "float32", "padding": [[1, 1], [1, 1]], "data_format": "channels_last"}, "name": "zero_padding2d_2", "inbound_nodes": [[["activation_1", 0, 0, {}]]]}, {"class_name": "Conv2D", "config": {"name": "conv3", "trainable": true, "dtype": "float32", "filters": 192, "kernel_size": [3, 3], "strides": [1, 1], "padding": "valid", "data_format": "channels_last", "dilation_rate": [1, 1], "groups": 1, "activation": "linear", "use_bias": true, "kernel_initializer": {"module": "keras.initializers", "class_name": "GlorotUniform", "config": {"seed": null}, "registered_name": null}, "bias_initializer": {"module": "keras.initializers", "class_name": "Zeros", "config": {}, "registered_name": null}, "kernel_regularizer": null, "bias_regularizer": null, "activity_regularizer": null, "kernel_constraint": null, "bias_constraint": null}, "name": "conv3", "inbound_nodes": [[["zero_padding2d_2", 0, 0, {}]]]}, {"class_name": "BatchNormalization", "config": {"name": "bn3", "trainable": true, "dtype": "float32", "axis": [3], "momentum": 0.99, "epsilon": 1e-05, "center": true, "scale": true, "beta_initializer": {"module": "keras.initializers", "class_name": "Zeros", "config": {}, "registered_name": null}, "gamma_initializer": {"module": "keras.initializers", "class_name": "Ones", "config": {}, "registered_name": null}, "moving_mean_initializer": {"module": "keras.initializers", "class_name": "Zeros", "config": {}, "registered_name": null}, "moving_variance_initializer": {"module": "keras.initializers", "class_name": "Ones", "config": {}, "registered_name": null}, "beta_regularizer": null, "gamma_regularizer": null, "beta_constraint": null, "gamma_constraint": null}, "name": "bn3", "inbound_nodes": [[["conv3", 0, 0, {}]]]}, {"class_name": "Activation", "config": {"name": "activation_2", "trainable": true, "dtype": "float32", "activation": "relu"}, "name": "activation_2", "inbound_nodes": [[["bn3", 0, 0, {}]]]}, {"class_name": "Lambda", "config": {"name": "lrn_2", "trainable": true, "dtype": "float32", "function": ["4wEAAAAAAAAAAAAAAAEAAAAFAAAAUwAAAPMSAAAAdABqAWoCfABkAWQCZAONA1MAqQRO5y1DHOvi\nNho/5wAAAAAAAOg/KQLaBWFscGhh2gRiZXRhqQPaAnRm2gJubtoDbHJuqQHaAXipAHINAAAA+iIv\ncHJvamVjdC93b3Jrc3BhY2UvcHVibGljL21vZGVsLnB52gg8bGFtYmRhPk4AAADzAgAAABIA\n", null, null], "function_type": "lambda", "module": "__main__", "output_shape": null, "output_shape_type": "raw", "output_shape_module": null, "arguments": {}}, "name": "lrn_2", "inbound_nodes": [[["activation_2", 0, 0, {}]]]}, {"class_name": "ZeroPadding2D", "config": {"name": "zero_padding2d_3", "trainable": true, "dtype": "float32", "padding": [[1, 1], [1, 1]], "data_format": "channels_last"}, "name": "zero_padding2d_3", "inbound_nodes": [[["lrn_2", 0, 0, {}]]]}, {"class_name": "MaxPooling2D", "config": {"name": "max_pooling2d_1", "trainable": true, "dtype": "float32", "pool_size": [3, 3], "padding": "valid", "strides": [2, 2], "data_format": "channels_last"}, "name": "max_pooling2d_1", "inbound_nodes": [[["zero_padding2d_3", 0, 0, {}]]]}, {"class_name": "Conv2D", "config": {"name": "inception_3a_3x3_conv1", "trainable": true, "dtype": "float32", "filters": 96, "kernel_size": [1, 1], "strides": [1, 1], "padding": "valid", "data_format": "channels_last", "dilation_rate": [1, 1], "groups": 1, "activation": "linear", "use_bias": true, "kernel_initializer": {"module": "keras.initializers", "class_name": "GlorotUniform", "config": {"seed": null}, "registered_name": null}, "bias_initializer": {"module": "keras.initializers", "class_name": "Zeros", "config": {}, "registered_name": null}, "kernel_regularizer": null, "bias_regularizer": null, "activity_regularizer": null, "kernel_constraint": null, "bias_constraint": null}, "name": "inception_3a_3x3_conv1", "inbound_nodes": [[["max_pooling2d_1", 0, 0, {}]]]}, {"class_name": "Conv2D", "config": {"name": "inception_3a_5x5_conv1", "trainable": true, "dtype": "float32", "filters": 16, "kernel_size": [1, 1], "strides": [1, 1], "padding": "valid", "data_format": "channels_last", "dilation_rate": [1, 1], "groups": 1, "activation": "linear", "use_bias": true, "kernel_initializer": {"module": "keras.initializers", "class_name": "GlorotUniform", "config": {"seed": null}, "registered_name": null}, "bias_initializer": {"module": "keras.initializers", "class_name": "Zeros", "config": {}, "registered_name": null}, "kernel_regularizer": null, "bias_regularizer": null, "activity_regularizer": null, "kernel_constraint": null, "bias_constraint": null}, "name": "inception_3a_5x5_conv1", "inbound_nodes": [[["max_pooling2d_1", 0, 0, {}]]]}, {"class_name": "BatchNormalization", "config": {"name": "inception_3a_3x3_bn1", "trainable": true, "dtype": "float32", "axis": [3], "momentum": 0.99, "epsilon": 1e-05, "center": true, "scale": true, "beta_initializer": {"module": "keras.initializers", "class_name": "Zeros", "config": {}, "registered_name": null}, "gamma_initializer": {"module": "keras.initializers", "class_name": "Ones", "config": {}, "registered_name": null}, "moving_mean_initializer": {"module": "keras.initializers", "class_name": "Zeros", "config": {}, "registered_name": null}, "moving_variance_initializer": {"module": "keras.initializers", "class_name": "Ones", "config": {}, "registered_name": null}, "beta_regularizer": null, "gamma_regularizer": null, "beta_constraint": null, "gamma_constraint": null}, "name": "inception_3a_3x3_bn1", "inbound_nodes": [[["inception_3a_3x3_conv1", 0, 0, {}]]]}, {"class_name": "BatchNormalization", "config": {"name": "inception_3a_5x5_bn1", "trainable": true, "dtype": "float32", "axis": [3], "momentum": 0.99, "epsilon": 1e-05, "center": true, "scale": true, "beta_initializer": {"module": "keras.initializers", "class_name": "Zeros", "config": {}, "registered_name": null}, "gamma_initializer": {"module": "keras.initializers", "class_name": "Ones", "config": {}, "registered_name": null}, "moving_mean_initializer": {"module": "keras.initializers", "class_name": "Zeros", "config": {}, "registered_name": null}, "moving_variance_initializer": {"module": "keras.initializers", "class_name": "Ones", "config": {}, "registered_name": null}, "beta_regularizer": null, "gamma_regularizer": null, "beta_constraint": null, "gamma_constraint": null}, "name": "inception_3a_5x5_bn1", "inbound_nodes": [[["inception_3a_5x5_conv1", 0, 0, {}]]]}, {"class_name": "Activation", "config": {"name": "activation_3", "trainable": true, "dtype": "float32", "activation": "relu"}, "name": "activation_3", "inbound_nodes": [[["inception_3a_3x3_bn1", 0, 0, {}]]]}, {"class_name": "Activation", "config": {"name": "activation_5", "trainable": true, "dtype": "float32", "activation": "relu"}, "name": "activation_5", "inbound_nodes": [[["inception_3a_5x5_bn1", 0, 0, {}]]]}, {"class_name": "MaxPooling2D", "config": {"name": "max_pooling2d_2", "trainable": true, "dtype": "float32", "pool_size": [3, 3], "padding": "valid", "strides": [2, 2], "data_format": "channels_last"}, "name": "max_pooling2d_2", "inbound_nodes": [[["max_pooling2d_1", 0, 0, {}]]]}, {"class_name": "ZeroPadding2D", "config": {"name": "zero_padding2d_4", "trainable": true, "dtype": "float32", "padding": [[1, 1], [1, 1]], "data_format": "channels_last"}, "name": "zero_padding2d_4", "inbound_nodes": [[["activation_3", 0, 0, {}]]]}, {"class_name": "ZeroPadding2D", "config": {"name": "zero_padding2d_5", "trainable": true, "dtype": "float32", "padding": [[2, 2], [2, 2]], "data_format": "channels_last"}, "name": "zero_padding2d_5", "inbound_nodes": [[["activation_5", 0, 0, {}]]]}, {"class_name": "Conv2D", "config": {"name": "inception_3a_pool_conv", "trainable": true, "dtype": "float32", "filters": 32, "kernel_size": [1, 1], "strides": [1, 1], "padding": "valid", "data_format": "channels_last", "dilation_rate": [1, 1], "groups": 1, "activation": "linear", "use_bias": true, "kernel_initializer": {"module": "keras.initializers", "class_name": "GlorotUniform", "config": {"seed": null}, "registered_name": null}, "bias_initializer": {"module": "keras.initializers", "class_name": "Zeros", "config": {}, "registered_name": null}, "kernel_regularizer": null, "bias_regularizer": null, "activity_regularizer": null, "kernel_constraint": null, "bias_constraint": null}, "name": "inception_3a_pool_conv", "inbound_nodes": [[["max_pooling2d_2", 0, 0, {}]]]}, {"class_name": "Conv2D", "config": {"name": "inception_3a_3x3_conv2", "trainable": true, "dtype": "float32", "filters": 128, "kernel_size": [3, 3], "strides": [1, 1], "padding": "valid", "data_format": "channels_last", "dilation_rate": [1, 1], "groups": 1, "activation": "linear", "use_bias": true, "kernel_initializer": {"module": "keras.initializers", "class_name": "GlorotUniform", "config": {"seed": null}, "registered_name": null}, "bias_initializer": {"module": "keras.initializers", "class_name": "Zeros", "config": {}, "registered_name": null}, "kernel_regularizer": null, "bias_regularizer": null, "activity_regularizer": null, "kernel_constraint": null, "bias_constraint": null}, "name": "inception_3a_3x3_conv2", "inbound_nodes": [[["zero_padding2d_4", 0, 0, {}]]]}, {"class_name": "Conv2D", "config": {"name": "inception_3a_5x5_conv2", "trainable": true, "dtype": "float32", "filters": 32, "kernel_size": [5, 5], "strides": [1, 1], "padding": "valid", "data_format": "channels_last", "dilation_rate": [1, 1], "groups": 1, "activation": "linear", "use_bias": true, "kernel_initializer": {"module": "keras.initializers", "class_name": "GlorotUniform", "config": {"seed": null}, "registered_name": null}, "bias_initializer": {"module": "keras.initializers", "class_name": "Zeros", "config": {}, "registered_name": null}, "kernel_regularizer": null, "bias_regularizer": null, "activity_regularizer": null, "kernel_constraint": null, "bias_constraint": null}, "name": "inception_3a_5x5_conv2", "inbound_nodes": [[["zero_padding2d_5", 0, 0, {}]]]}, {"class_name": "BatchNormalization", "config": {"name": "inception_3a_pool_bn", "trainable": true, "dtype": "float32", "axis": [3], "momentum": 0.99, "epsilon": 1e-05, "center": true, "scale": true, "beta_initializer": {"module": "keras.initializers", "class_name": "Zeros", "config": {}, "registered_name": null}, "gamma_initializer": {"module": "keras.initializers", "class_name": "Ones", "config": {}, "registered_name": null}, "moving_mean_initializer": {"module": "keras.initializers", "class_name": "Zeros", "config": {}, "registered_name": null}, "moving_variance_initializer": {"module": "keras.initializers", "class_name": "Ones", "config": {}, "registered_name": null}, "beta_regularizer": null, "gamma_regularizer": null, "beta_constraint": null, "gamma_constraint": null}, "name": "inception_3a_pool_bn", "inbound_nodes": [[["inception_3a_pool_conv", 0, 0, {}]]]}, {"class_name": "Conv2D", "config": {"name": "inception_3a_1x1_conv", "trainable": true, "dtype": "float32", "filters": 64, "kernel_size": [1, 1], "strides": [1, 1], "padding": "valid", "data_format": "channels_last", "dilation_rate": [1, 1], "groups": 1, "activation": "linear", "use_bias": true, "kernel_initializer": {"module": "keras.initializers", "class_name": "GlorotUniform", "config": {"seed": null}, "registered_name": null}, "bias_initializer": {"module": "keras.initializers", "class_name": "Zeros", "config": {}, "registered_name": null}, "kernel_regularizer": null, "bias_regularizer": null, "activity_regularizer": null, "kernel_constraint": null, "bias_constraint": null}, "name": "inception_3a_1x1_conv", "inbound_nodes": [[["max_pooling2d_1", 0, 0, {}]]]}, {"class_name": "BatchNormalization", "config": {"name": "inception_3a_3x3_bn2", "trainable": true, "dtype": "float32", "axis": [3], "momentum": 0.99, "epsilon": 1e-05, "center": true, "scale": true, "beta_initializer": {"module": "keras.initializers", "class_name": "Zeros", "config": {}, "registered_name": null}, "gamma_initializer": {"module": "keras.initializers", "class_name": "Ones", "config": {}, "registered_name": null}, "moving_mean_initializer": {"module": "keras.initializers", "class_name": "Zeros", "config": {}, "registered_name": null}, "moving_variance_initializer": {"module": "keras.initializers", "class_name": "Ones", "config": {}, "registered_name": null}, "beta_regularizer": null, "gamma_regularizer": null, "beta_constraint": null, "gamma_constraint": null}, "name": "inception_3a_3x3_bn2", "inbound_nodes": [[["inception_3a_3x3_conv2", 0, 0, {}]]]}, {"class_name": "BatchNormalization", "config": {"name": "inception_3a_5x5_bn2", "trainable": true, "dtype": "float32", "axis": [3], "momentum": 0.99, "epsilon": 1e-05, "center": true, "scale": true, "beta_initializer": {"module": "keras.initializers", "class_name": "Zeros", "config": {}, "registered_name": null}, "gamma_initializer": {"module": "keras.initializers", "class_name": "Ones", "config": {}, "registered_name": null}, "moving_mean_initializer": {"module": "keras.initializers", "class_name": "Zeros", "config": {}, "registered_name": null}, "moving_variance_initializer": {"module": "keras.initializers", "class_name": "Ones", "config": {}, "registered_name": null}, "beta_regularizer": null, "gamma_regularizer": null, "beta_constraint": null, "gamma_constraint": null}, "name": "inception_3a_5x5_bn2", "inbound_nodes": [[["inception_3a_5x5_conv2", 0, 0, {}]]]}, {"class_name": "Activation", "config": {"name": "activation_7", "trainable": true, "dtype": "float32", "activation": "relu"}, "name": "activation_7", "inbound_nodes": [[["inception_3a_pool_bn", 0, 0, {}]]]}, {"class_name": "BatchNormalization", "config": {"name": "inception_3a_1x1_bn", "trainable": true, "dtype": "float32", "axis": [3], "momentum": 0.99, "epsilon": 1e-05, "center": true, "scale": true, "beta_initializer": {"module": "keras.initializers", "class_name": "Zeros", "config": {}, "registered_name": null}, "gamma_initializer": {"module": "keras.initializers", "class_name": "Ones", "config": {}, "registered_name": null}, "moving_mean_initializer": {"module": "keras.initializers", "class_name": "Zeros", "config": {}, "registered_name": null}, "moving_variance_initializer": {"module": "keras.initializers", "class_name": "Ones", "config": {}, "registered_name": null}, "beta_regularizer": null, "gamma_regularizer": null, "beta_constraint": null, "gamma_constraint": null}, "name": "inception_3a_1x1_bn", "inbound_nodes": [[["inception_3a_1x1_conv", 0, 0, {}]]]}, {"class_name": "Activation", "config": {"name": "activation_4", "trainable": true, "dtype": "float32", "activation": "relu"}, "name": "activation_4", "inbound_nodes": [[["inception_3a_3x3_bn2", 0, 0, {}]]]}, {"class_name": "Activation", "config": {"name": "activation_6", "trainable": true, "dtype": "float32", "activation": "relu"}, "name": "activation_6", "inbound_nodes": [[["inception_3a_5x5_bn2", 0, 0, {}]]]}, {"class_name": "ZeroPadding2D", "config": {"name": "zero_padding2d_6", "trainable": true, "dtype": "float32", "padding": [[3, 4], [3, 4]], "data_format": "channels_last"}, "name": "zero_padding2d_6", "inbound_nodes": [[["activation_7", 0, 0, {}]]]}, {"class_name": "Activation", "config": {"name": "activation_8", "trainable": true, "dtype": "float32", "activation": "relu"}, "name": "activation_8", "inbound_nodes": [[["inception_3a_1x1_bn", 0, 0, {}]]]}, {"class_name": "Concatenate", "config": {"name": "concatenate", "trainable": true, "dtype": "float32", "axis": 3}, "name": "concatenate", "inbound_nodes": [[["activation_4", 0, 0, {}], ["activation_6", 0, 0, {}], ["zero_padding2d_6", 0, 0, {}], ["activation_8", 0, 0, {}]]]}, {"class_name": "Lambda", "config": {"name": "power2_3b", "trainable": true, "dtype": "float32", "function": ["4wEAAAAAAAAAAAAAAAEAAAACAAAAUwAAAPMIAAAAfABkARMAUwCpAk7pAgAAAKkAqQHaAXhyBAAA\nAHIEAAAA+iIvcHJvamVjdC93b3Jrc3BhY2UvcHVibGljL21vZGVsLnB52gg8bGFtYmRhPpYAAADz\nAgAAAAgA\n", null, null], "function_type": "lambda", "module": "__main__", "output_shape": null, "output_shape_type": "raw", "output_shape_module": null, "arguments": {}}, "name": "power2_3b", "inbound_nodes": [[["concatenate", 0, 0, {}]]]}, {"class_name": "Conv2D", "config": {"name": "inception_3b_3x3_conv1", "trainable": true, "dtype": "float32", "filters": 96, "kernel_size": [1, 1], "strides": [1, 1], "padding": "valid", "data_format": "channels_last", "dilation_rate": [1, 1], "groups": 1, "activation": "linear", "use_bias": true, "kernel_initializer": {"module": "keras.initializers", "class_name": "GlorotUniform", "config": {"seed": null}, "registered_name": null}, "bias_initializer": {"module": "keras.initializers", "class_name": "Zeros", "config": {}, "registered_name": null}, "kernel_regularizer": null, "bias_regularizer": null, "activity_regularizer": null, "kernel_constraint": null, "bias_constraint": null}, "name": "inception_3b_3x3_conv1", "inbound_nodes": [[["concatenate", 0, 0, {}]]]}, {"class_name": "Conv2D", "config": {"name": "inception_3b_5x5_conv1", "trainable": true, "dtype": "float32", "filters": 32, "kernel_size": [1, 1], "strides": [1, 1], "padding": "valid", "data_format": "channels_last", "dilation_rate": [1, 1], "groups": 1, "activation": "linear", "use_bias": true, "kernel_initializer": {"module": "keras.initializers", "class_name": "GlorotUniform", "config": {"seed": null}, "registered_name": null}, "bias_initializer": {"module": "keras.initializers", "class_name": "Zeros", "config": {}, "registered_name": null}, "kernel_regularizer": null, "bias_regularizer": null, "activity_regularizer": null, "kernel_constraint": null, "bias_constraint": null}, "name": "inception_3b_5x5_conv1", "inbound_nodes": [[["concatenate", 0, 0, {}]]]}, {"class_name": "AveragePooling2D", "config": {"name": "average_pooling2d", "trainable": true, "dtype": "float32", "pool_size": [3, 3], "padding": "valid", "strides": [3, 3], "data_format": "channels_last"}, "name": "average_pooling2d", "inbound_nodes": [[["power2_3b", 0, 0, {}]]]}, {"class_name": "BatchNormalization", "config": {"name": "inception_3b_3x3_bn1", "trainable": true, "dtype": "float32", "axis": [3], "momentum": 0.99, "epsilon": 1e-05, "center": true, "scale": true, "beta_initializer": {"module": "keras.initializers", "class_name": "Zeros", "config": {}, "registered_name": null}, "gamma_initializer": {"module": "keras.initializers", "class_name": "Ones", "config": {}, "registered_name": null}, "moving_mean_initializer": {"module": "keras.initializers", "class_name": "Zeros", "config": {}, "registered_name": null}, "moving_variance_initializer": {"module": "keras.initializers", "class_name": "Ones", "config": {}, "registered_name": null}, "beta_regularizer": null, "gamma_regularizer": null, "beta_constraint": null, "gamma_constraint": null}, "name": "inception_3b_3x3_bn1", "inbound_nodes": [[["inception_3b_3x3_conv1", 0, 0, {}]]]}, {"class_name": "BatchNormalization", "config": {"name": "inception_3b_5x5_bn1", "trainable": true, "dtype": "float32", "axis": [3], "momentum": 0.99, "epsilon": 1e-05, "center": true, "scale": true, "beta_initializer": {"module": "keras.initializers", "class_name": "Zeros", "config": {}, "registered_name": null}, "gamma_initializer": {"module": "keras.initializers", "class_name": "Ones", "config": {}, "registered_name": null}, "moving_mean_initializer": {"module": "keras.initializers", "class_name": "Zeros", "config": {}, "registered_name": null}, "moving_variance_initializer": {"module": "keras.initializers", "class_name": "Ones", "config": {}, "registered_name": null}, "beta_regularizer": null, "gamma_regularizer": null, "beta_constraint": null, "gamma_constraint": null}, "name": "inception_3b_5x5_bn1", "inbound_nodes": [[["inception_3b_5x5_conv1", 0, 0, {}]]]}, {"class_name": "Lambda", "config": {"name": "mult9_3b", "trainable": true, "dtype": "float32", "function": ["4wEAAAAAAAAAAAAAAAEAAAACAAAAUwAAAPMIAAAAfABkARQAUwCpAk7pCQAAAKkAqQHaAXhyBAAA\nAHIEAAAA+iIvcHJvamVjdC93b3Jrc3BhY2UvcHVibGljL21vZGVsLnB52gg8bGFtYmRhPpgAAADz\nAgAAAAgA\n", null, null], "function_type": "lambda", "module": "__main__", "output_shape": null, "output_shape_type": "raw", "output_shape_module": null, "arguments": {}}, "name": "mult9_3b", "inbound_nodes": [[["average_pooling2d", 0, 0, {}]]]}, {"class_name": "Activation", "config": {"name": "activation_9", "trainable": true, "dtype": "float32", "activation": "relu"}, "name": "activation_9", "inbound_nodes": [[["inception_3b_3x3_bn1", 0, 0, {}]]]}, {"class_name": "Activation", "config": {"name": "activation_11", "trainable": true, "dtype": "float32", "activation": "relu"}, "name": "activation_11", "inbound_nodes": [[["inception_3b_5x5_bn1", 0, 0, {}]]]}, {"class_name": "Lambda", "config": {"name": "sqrt_3b", "trainable": true, "dtype": "float32", "function": ["4wEAAAAAAAAAAAAAAAEAAAADAAAAUwAAAPMKAAAAdACgAXwAoQFTAKkBTqkC2gFL2gRzcXJ0qQHa\nAXipAHIIAAAA+iIvcHJvamVjdC93b3Jrc3BhY2UvcHVibGljL21vZGVsLnB52gg8bGFtYmRhPpkA\nAADzAgAAAAoA\n", null, null], "function_type": "lambda", "module": "__main__", "output_shape": null, "output_shape_type": "raw", "output_shape_module": null, "arguments": {}}, "name": "sqrt_3b", "inbound_nodes": [[["mult9_3b", 0, 0, {}]]]}, {"class_name": "ZeroPadding2D", "config": {"name": "zero_padding2d_7", "trainable": true, "dtype": "float32", "padding": [[1, 1], [1, 1]], "data_format": "channels_last"}, "name": "zero_padding2d_7", "inbound_nodes": [[["activation_9", 0, 0, {}]]]}, {"class_name": "ZeroPadding2D", "config": {"name": "zero_padding2d_8", "trainable": true, "dtype": "float32", "padding": [[2, 2], [2, 2]], "data_format": "channels_last"}, "name": "zero_padding2d_8", "inbound_nodes": [[["activation_11", 0, 0, {}]]]}, {"class_name": "Conv2D", "config": {"name": "inception_3b_pool_conv", "trainable": true, "dtype": "float32", "filters": 64, "kernel_size": [1, 1], "strides": [1, 1], "padding": "valid", "data_format": "channels_last", "dilation_rate": [1, 1], "groups": 1, "activation": "linear", "use_bias": true, "kernel_initializer": {"module": "keras.initializers", "class_name": "GlorotUniform", "config": {"seed": null}, "registered_name": null}, "bias_initializer": {"module": "keras.initializers", "class_name": "Zeros", "config": {}, "registered_name": null}, "kernel_regularizer": null, "bias_regularizer": null, "activity_regularizer": null, "kernel_constraint": null, "bias_constraint": null}, "name": "inception_3b_pool_conv", "inbound_nodes": [[["sqrt_3b", 0, 0, {}]]]}, {"class_name": "Conv2D", "config": {"name": "inception_3b_3x3_conv2", "trainable": true, "dtype": "float32", "filters": 128, "kernel_size": [3, 3], "strides": [1, 1], "padding": "valid", "data_format": "channels_last", "dilation_rate": [1, 1], "groups": 1, "activation": "linear", "use_bias": true, "kernel_initializer": {"module": "keras.initializers", "class_name": "GlorotUniform", "config": {"seed": null}, "registered_name": null}, "bias_initializer": {"module": "keras.initializers", "class_name": "Zeros", "config": {}, "registered_name": null}, "kernel_regularizer": null, "bias_regularizer": null, "activity_regularizer": null, "kernel_constraint": null, "bias_constraint": null}, "name": "inception_3b_3x3_conv2", "inbound_nodes": [[["zero_padding2d_7", 0, 0, {}]]]}, {"class_name": "Conv2D", "config": {"name": "inception_3b_5x5_conv2", "trainable": true, "dtype": "float32", "filters": 64, "kernel_size": [5, 5], "strides": [1, 1], "padding": "valid", "data_format": "channels_last", "dilation_rate": [1, 1], "groups": 1, "activation": "linear", "use_bias": true, "kernel_initializer": {"module": "keras.initializers", "class_name": "GlorotUniform", "config": {"seed": null}, "registered_name": null}, "bias_initializer": {"module": "keras.initializers", "class_name": "Zeros", "config": {}, "registered_name": null}, "kernel_regularizer": null, "bias_regularizer": null, "activity_regularizer": null, "kernel_constraint": null, "bias_constraint": null}, "name": "inception_3b_5x5_conv2", "inbound_nodes": [[["zero_padding2d_8", 0, 0, {}]]]}, {"class_name": "BatchNormalization", "config": {"name": "inception_3b_pool_bn", "trainable": true, "dtype": "float32", "axis": [3], "momentum": 0.99, "epsilon": 1e-05, "center": true, "scale": true, "beta_initializer": {"module": "keras.initializers", "class_name": "Zeros", "config": {}, "registered_name": null}, "gamma_initializer": {"module": "keras.initializers", "class_name": "Ones", "config": {}, "registered_name": null}, "moving_mean_initializer": {"module": "keras.initializers", "class_name": "Zeros", "config": {}, "registered_name": null}, "moving_variance_initializer": {"module": "keras.initializers", "class_name": "Ones", "config": {}, "registered_name": null}, "beta_regularizer": null, "gamma_regularizer": null, "beta_constraint": null, "gamma_constraint": null}, "name": "inception_3b_pool_bn", "inbound_nodes": [[["inception_3b_pool_conv", 0, 0, {}]]]}, {"class_name": "Conv2D", "config": {"name": "inception_3b_1x1_conv", "trainable": true, "dtype": "float32", "filters": 64, "kernel_size": [1, 1], "strides": [1, 1], "padding": "valid", "data_format": "channels_last", "dilation_rate": [1, 1], "groups": 1, "activation": "linear", "use_bias": true, "kernel_initializer": {"module": "keras.initializers", "class_name": "GlorotUniform", "config": {"seed": null}, "registered_name": null}, "bias_initializer": {"module": "keras.initializers", "class_name": "Zeros", "config": {}, "registered_name": null}, "kernel_regularizer": null, "bias_regularizer": null, "activity_regularizer": null, "kernel_constraint": null, "bias_constraint": null}, "name": "inception_3b_1x1_conv", "inbound_nodes": [[["concatenate", 0, 0, {}]]]}, {"class_name": "BatchNormalization", "config": {"name": "inception_3b_3x3_bn2", "trainable": true, "dtype": "float32", "axis": [3], "momentum": 0.99, "epsilon": 1e-05, "center": true, "scale": true, "beta_initializer": {"module": "keras.initializers", "class_name": "Zeros", "config": {}, "registered_name": null}, "gamma_initializer": {"module": "keras.initializers", "class_name": "Ones", "config": {}, "registered_name": null}, "moving_mean_initializer": {"module": "keras.initializers", "class_name": "Zeros", "config": {}, "registered_name": null}, "moving_variance_initializer": {"module": "keras.initializers", "class_name": "Ones", "config": {}, "registered_name": null}, "beta_regularizer": null, "gamma_regularizer": null, "beta_constraint": null, "gamma_constraint": null}, "name": "inception_3b_3x3_bn2", "inbound_nodes": [[["inception_3b_3x3_conv2", 0, 0, {}]]]}, {"class_name": "BatchNormalization", "config": {"name": "inception_3b_5x5_bn2", "trainable": true, "dtype": "float32", "axis": [3], "momentum": 0.99, "epsilon": 1e-05, "center": true, "scale": true, "beta_initializer": {"module": "keras.initializers", "class_name": "Zeros", "config": {}, "registered_name": null}, "gamma_initializer": {"module": "keras.initializers", "class_name": "Ones", "config": {}, "registered_name": null}, "moving_mean_initializer": {"module": "keras.initializers", "class_name": "Zeros", "config": {}, "registered_name": null}, "moving_variance_initializer": {"module": "keras.initializers", "class_name": "Ones", "config": {}, "registered_name": null}, "beta_regularizer": null, "gamma_regularizer": null, "beta_constraint": null, "gamma_constraint": null}, "name": "inception_3b_5x5_bn2", "inbound_nodes": [[["inception_3b_5x5_conv2", 0, 0, {}]]]}, {"class_name": "Activation", "config": {"name": "activation_13", "trainable": true, "dtype": "float32", "activation": "relu"}, "name": "activation_13", "inbound_nodes": [[["inception_3b_pool_bn", 0, 0, {}]]]}, {"class_name": "BatchNormalization", "config": {"name": "inception_3b_1x1_bn", "trainable": true, "dtype": "float32", "axis": [3], "momentum": 0.99, "epsilon": 1e-05, "center": true, "scale": true, "beta_initializer": {"module": "keras.initializers", "class_name": "Zeros", "config": {}, "registered_name": null}, "gamma_initializer": {"module": "keras.initializers", "class_name": "Ones", "config": {}, "registered_name": null}, "moving_mean_initializer": {"module": "keras.initializers", "class_name": "Zeros", "config": {}, "registered_name": null}, "moving_variance_initializer": {"module": "keras.initializers", "class_name": "Ones", "config": {}, "registered_name": null}, "beta_regularizer": null, "gamma_regularizer": null, "beta_constraint": null, "gamma_constraint": null}, "name": "inception_3b_1x1_bn", "inbound_nodes": [[["inception_3b_1x1_conv", 0, 0, {}]]]}, {"class_name": "Activation", "config": {"name": "activation_10", "trainable": true, "dtype": "float32", "activation": "relu"}, "name": "activation_10", "inbound_nodes": [[["inception_3b_3x3_bn2", 0, 0, {}]]]}, {"class_name": "Activation", "config": {"name": "activation_12", "trainable": true, "dtype": "float32", "activation": "relu"}, "name": "activation_12", "inbound_nodes": [[["inception_3b_5x5_bn2", 0, 0, {}]]]}, {"class_name": "ZeroPadding2D", "config": {"name": "zero_padding2d_9", "trainable": true, "dtype": "float32", "padding": [[4, 4], [4, 4]], "data_format": "channels_last"}, "name": "zero_padding2d_9", "inbound_nodes": [[["activation_13", 0, 0, {}]]]}, {"class_name": "Activation", "config": {"name": "activation_14", "trainable": true, "dtype": "float32", "activation": "relu"}, "name": "activation_14", "inbound_nodes": [[["inception_3b_1x1_bn", 0, 0, {}]]]}, {"class_name": "Concatenate", "config": {"name": "concatenate_1", "trainable": true, "dtype": "float32", "axis": 3}, "name": "concatenate_1", "inbound_nodes": [[["activation_10", 0, 0, {}], ["activation_12", 0, 0, {}], ["zero_padding2d_9", 0, 0, {}], ["activation_14", 0, 0, {}]]]}, {"class_name": "Conv2D", "config": {"name": "inception_3c_3x3_conv1", "trainable": true, "dtype": "float32", "filters": 128, "kernel_size": [1, 1], "strides": [1, 1], "padding": "valid", "data_format": "channels_last", "dilation_rate": [1, 1], "groups": 1, "activation": "linear", "use_bias": true, "kernel_initializer": {"module": "keras.initializers", "class_name": "GlorotUniform", "config": {"seed": null}, "registered_name": null}, "bias_initializer": {"module": "keras.initializers", "class_name": "Zeros", "config": {}, "registered_name": null}, "kernel_regularizer": null, "bias_regularizer": null, "activity_regularizer": null, "kernel_constraint": null, "bias_constraint": null}, "name": "inception_3c_3x3_conv1", "inbound_nodes": [[["concatenate_1", 0, 0, {}]]]}, {"class_name": "Conv2D", "config": {"name": "inception_3c_5x5_conv1", "trainable": true, "dtype": "float32", "filters": 32, "kernel_size": [1, 1], "strides": [1, 1], "padding": "valid", "data_format": "channels_last", "dilation_rate": [1, 1], "groups": 1, "activation": "linear", "use_bias": true, "kernel_initializer": {"module": "keras.initializers", "class_name": "GlorotUniform", "config": {"seed": null}, "registered_name": null}, "bias_initializer": {"module": "keras.initializers", "class_name": "Zeros", "config": {}, "registered_name": null}, "kernel_regularizer": null, "bias_regularizer": null, "activity_regularizer": null, "kernel_constraint": null, "bias_constraint": null}, "name": "inception_3c_5x5_conv1", "inbound_nodes": [[["concatenate_1", 0, 0, {}]]]}, {"class_name": "BatchNormalization", "config": {"name": "inception_3c_3x3_bn1", "trainable": true, "dtype": "float32", "axis": [3], "momentum": 0.99, "epsilon": 1e-05, "center": true, "scale": true, "beta_initializer": {"module": "keras.initializers", "class_name": "Zeros", "config": {}, "registered_name": null}, "gamma_initializer": {"module": "keras.initializers", "class_name": "Ones", "config": {}, "registered_name": null}, "moving_mean_initializer": {"module": "keras.initializers", "class_name": "Zeros", "config": {}, "registered_name": null}, "moving_variance_initializer": {"module": "keras.initializers", "class_name": "Ones", "config": {}, "registered_name": null}, "beta_regularizer": null, "gamma_regularizer": null, "beta_constraint": null, "gamma_constraint": null}, "name": "inception_3c_3x3_bn1", "inbound_nodes": [[["inception_3c_3x3_conv1", 0, 0, {}]]]}, {"class_name": "BatchNormalization", "config": {"name": "inception_3c_5x5_bn1", "trainable": true, "dtype": "float32", "axis": [3], "momentum": 0.99, "epsilon": 1e-05, "center": true, "scale": true, "beta_initializer": {"module": "keras.initializers", "class_name": "Zeros", "config": {}, "registered_name": null}, "gamma_initializer": {"module": "keras.initializers", "class_name": "Ones", "config": {}, "registered_name": null}, "moving_mean_initializer": {"module": "keras.initializers", "class_name": "Zeros", "config": {}, "registered_name": null}, "moving_variance_initializer": {"module": "keras.initializers", "class_name": "Ones", "config": {}, "registered_name": null}, "beta_regularizer": null, "gamma_regularizer": null, "beta_constraint": null, "gamma_constraint": null}, "name": "inception_3c_5x5_bn1", "inbound_nodes": [[["inception_3c_5x5_conv1", 0, 0, {}]]]}, {"class_name": "Activation", "config": {"name": "activation_15", "trainable": true, "dtype": "float32", "activation": "relu"}, "name": "activation_15", "inbound_nodes": [[["inception_3c_3x3_bn1", 0, 0, {}]]]}, {"class_name": "Activation", "config": {"name": "activation_17", "trainable": true, "dtype": "float32", "activation": "relu"}, "name": "activation_17", "inbound_nodes": [[["inception_3c_5x5_bn1", 0, 0, {}]]]}, {"class_name": "ZeroPadding2D", "config": {"name": "zero_padding2d_10", "trainable": true, "dtype": "float32", "padding": [[1, 1], [1, 1]], "data_format": "channels_last"}, "name": "zero_padding2d_10", "inbound_nodes": [[["activation_15", 0, 0, {}]]]}, {"class_name": "ZeroPadding2D", "config": {"name": "zero_padding2d_11", "trainable": true, "dtype": "float32", "padding": [[2, 2], [2, 2]], "data_format": "channels_last"}, "name": "zero_padding2d_11", "inbound_nodes": [[["activation_17", 0, 0, {}]]]}, {"class_name": "Conv2D", "config": {"name": "inception_3c_3x3_conv2", "trainable": true, "dtype": "float32", "filters": 256, "kernel_size": [3, 3], "strides": [2, 2], "padding": "valid", "data_format": "channels_last", "dilation_rate": [1, 1], "groups": 1, "activation": "linear", "use_bias": true, "kernel_initializer": {"module": "keras.initializers", "class_name": "GlorotUniform", "config": {"seed": null}, "registered_name": null}, "bias_initializer": {"module": "keras.initializers", "class_name": "Zeros", "config": {}, "registered_name": null}, "kernel_regularizer": null, "bias_regularizer": null, "activity_regularizer": null, "kernel_constraint": null, "bias_constraint": null}, "name": "inception_3c_3x3_conv2", "inbound_nodes": [[["zero_padding2d_10", 0, 0, {}]]]}, {"class_name": "Conv2D", "config": {"name": "inception_3c_5x5_conv2", "trainable": true, "dtype": "float32", "filters": 64, "kernel_size": [5, 5], "strides": [2, 2], "padding": "valid", "data_format": "channels_last", "dilation_rate": [1, 1], "groups": 1, "activation": "linear", "use_bias": true, "kernel_initializer": {"module": "keras.initializers", "class_name": "GlorotUniform", "config": {"seed": null}, "registered_name": null}, "bias_initializer": {"module": "keras.initializers", "class_name": "Zeros", "config": {}, "registered_name": null}, "kernel_regularizer": null, "bias_regularizer": null, "activity_regularizer": null, "kernel_constraint": null, "bias_constraint": null}, "name": "inception_3c_5x5_conv2", "inbound_nodes": [[["zero_padding2d_11", 0, 0, {}]]]}, {"class_name": "BatchNormalization", "config": {"name": "inception_3c_3x3_bn2", "trainable": true, "dtype": "float32", "axis": [3], "momentum": 0.99, "epsilon": 1e-05, "center": true, "scale": true, "beta_initializer": {"module": "keras.initializers", "class_name": "Zeros", "config": {}, "registered_name": null}, "gamma_initializer": {"module": "keras.initializers", "class_name": "Ones", "config": {}, "registered_name": null}, "moving_mean_initializer": {"module": "keras.initializers", "class_name": "Zeros", "config": {}, "registered_name": null}, "moving_variance_initializer": {"module": "keras.initializers", "class_name": "Ones", "config": {}, "registered_name": null}, "beta_regularizer": null, "gamma_regularizer": null, "beta_constraint": null, "gamma_constraint": null}, "name": "inception_3c_3x3_bn2", "inbound_nodes": [[["inception_3c_3x3_conv2", 0, 0, {}]]]}, {"class_name": "BatchNormalization", "config": {"name": "inception_3c_5x5_bn2", "trainable": true, "dtype": "float32", "axis": [3], "momentum": 0.99, "epsilon": 1e-05, "center": true, "scale": true, "beta_initializer": {"module": "keras.initializers", "class_name": "Zeros", "config": {}, "registered_name": null}, "gamma_initializer": {"module": "keras.initializers", "class_name": "Ones", "config": {}, "registered_name": null}, "moving_mean_initializer": {"module": "keras.initializers", "class_name": "Zeros", "config": {}, "registered_name": null}, "moving_variance_initializer": {"module": "keras.initializers", "class_name": "Ones", "config": {}, "registered_name": null}, "beta_regularizer": null, "gamma_regularizer": null, "beta_constraint": null, "gamma_constraint": null}, "name": "inception_3c_5x5_bn2", "inbound_nodes": [[["inception_3c_5x5_conv2", 0, 0, {}]]]}, {"class_name": "MaxPooling2D", "config": {"name": "max_pooling2d_3", "trainable": true, "dtype": "float32", "pool_size": [3, 3], "padding": "valid", "strides": [2, 2], "data_format": "channels_last"}, "name": "max_pooling2d_3", "inbound_nodes": [[["concatenate_1", 0, 0, {}]]]}, {"class_name": "Activation", "config": {"name": "activation_16", "trainable": true, "dtype": "float32", "activation": "relu"}, "name": "activation_16", "inbound_nodes": [[["inception_3c_3x3_bn2", 0, 0, {}]]]}, {"class_name": "Activation", "config": {"name": "activation_18", "trainable": true, "dtype": "float32", "activation": "relu"}, "name": "activation_18", "inbound_nodes": [[["inception_3c_5x5_bn2", 0, 0, {}]]]}, {"class_name": "ZeroPadding2D", "config": {"name": "zero_padding2d_12", "trainable": true, "dtype": "float32", "padding": [[0, 1], [0, 1]], "data_format": "channels_last"}, "name": "zero_padding2d_12", "inbound_nodes": [[["max_pooling2d_3", 0, 0, {}]]]}, {"class_name": "Concatenate", "config": {"name": "concatenate_2", "trainable": true, "dtype": "float32", "axis": 3}, "name": "concatenate_2", "inbound_nodes": [[["activation_16", 0, 0, {}], ["activation_18", 0, 0, {}], ["zero_padding2d_12", 0, 0, {}]]]}, {"class_name": "Lambda", "config": {"name": "power2_4a", "trainable": true, "dtype": "float32", "function": ["4wEAAAAAAAAAAAAAAAEAAAACAAAAUwAAAPMIAAAAfABkARMAUwCpAk7pAgAAAKkAqQHaAXhyBAAA\nAHIEAAAA+iIvcHJvamVjdC93b3Jrc3BhY2UvcHVibGljL21vZGVsLnB52gg8bGFtYmRhPvIAAADz\nAgAAAAgA\n", null, null], "function_type": "lambda", "module": "__main__", "output_shape": null, "output_shape_type": "raw", "output_shape_module": null, "arguments": {}}, "name": "power2_4a", "inbound_nodes": [[["concatenate_2", 0, 0, {}]]]}, {"class_name": "Conv2D", "config": {"name": "inception_4a_3x3_conv1", "trainable": true, "dtype": "float32", "filters": 96, "kernel_size": [1, 1], "strides": [1, 1], "padding": "valid", "data_format": "channels_last", "dilation_rate": [1, 1], "groups": 1, "activation": "linear", "use_bias": true, "kernel_initializer": {"module": "keras.initializers", "class_name": "GlorotUniform", "config": {"seed": null}, "registered_name": null}, "bias_initializer": {"module": "keras.initializers", "class_name": "Zeros", "config": {}, "registered_name": null}, "kernel_regularizer": null, "bias_regularizer": null, "activity_regularizer": null, "kernel_constraint": null, "bias_constraint": null}, "name": "inception_4a_3x3_conv1", "inbound_nodes": [[["concatenate_2", 0, 0, {}]]]}, {"class_name": "Conv2D", "config": {"name": "inception_4a_5x5_conv1", "trainable": true, "dtype": "float32", "filters": 32, "kernel_size": [1, 1], "strides": [1, 1], "padding": "valid", "data_format": "channels_last", "dilation_rate": [1, 1], "groups": 1, "activation": "linear", "use_bias": true, "kernel_initializer": {"module": "keras.initializers", "class_name": "GlorotUniform", "config": {"seed": null}, "registered_name": null}, "bias_initializer": {"module": "keras.initializers", "class_name": "Zeros", "config": {}, "registered_name": null}, "kernel_regularizer": null, "bias_regularizer": null, "activity_regularizer": null, "kernel_constraint": null, "bias_constraint": null}, "name": "inception_4a_5x5_conv1", "inbound_nodes": [[["concatenate_2", 0, 0, {}]]]}, {"class_name": "AveragePooling2D", "config": {"name": "average_pooling2d_1", "trainable": true, "dtype": "float32", "pool_size": [3, 3], "padding": "valid", "strides": [3, 3], "data_format": "channels_last"}, "name": "average_pooling2d_1", "inbound_nodes": [[["power2_4a", 0, 0, {}]]]}, {"class_name": "BatchNormalization", "config": {"name": "inception_4a_3x3_bn1", "trainable": true, "dtype": "float32", "axis": [3], "momentum": 0.99, "epsilon": 1e-05, "center": true, "scale": true, "beta_initializer": {"module": "keras.initializers", "class_name": "Zeros", "config": {}, "registered_name": null}, "gamma_initializer": {"module": "keras.initializers", "class_name": "Ones", "config": {}, "registered_name": null}, "moving_mean_initializer": {"module": "keras.initializers", "class_name": "Zeros", "config": {}, "registered_name": null}, "moving_variance_initializer": {"module": "keras.initializers", "class_name": "Ones", "config": {}, "registered_name": null}, "beta_regularizer": null, "gamma_regularizer": null, "beta_constraint": null, "gamma_constraint": null}, "name": "inception_4a_3x3_bn1", "inbound_nodes": [[["inception_4a_3x3_conv1", 0, 0, {}]]]}, {"class_name": "BatchNormalization", "config": {"name": "inception_4a_5x5_bn1", "trainable": true, "dtype": "float32", "axis": [3], "momentum": 0.99, "epsilon": 1e-05, "center": true, "scale": true, "beta_initializer": {"module": "keras.initializers", "class_name": "Zeros", "config": {}, "registered_name": null}, "gamma_initializer": {"module": "keras.initializers", "class_name": "Ones", "config": {}, "registered_name": null}, "moving_mean_initializer": {"module": "keras.initializers", "class_name": "Zeros", "config": {}, "registered_name": null}, "moving_variance_initializer": {"module": "keras.initializers", "class_name": "Ones", "config": {}, "registered_name": null}, "beta_regularizer": null, "gamma_regularizer": null, "beta_constraint": null, "gamma_constraint": null}, "name": "inception_4a_5x5_bn1", "inbound_nodes": [[["inception_4a_5x5_conv1", 0, 0, {}]]]}, {"class_name": "Lambda", "config": {"name": "mult9_4a", "trainable": true, "dtype": "float32", "function": ["4wEAAAAAAAAAAAAAAAEAAAACAAAAUwAAAPMIAAAAfABkARQAUwCpAk7pCQAAAKkAqQHaAXhyBAAA\nAHIEAAAA+iIvcHJvamVjdC93b3Jrc3BhY2UvcHVibGljL21vZGVsLnB52gg8bGFtYmRhPvQAAADz\nAgAAAAgA\n", null, null], "function_type": "lambda", "module": "__main__", "output_shape": null, "output_shape_type": "raw", "output_shape_module": null, "arguments": {}}, "name": "mult9_4a", "inbound_nodes": [[["average_pooling2d_1", 0, 0, {}]]]}, {"class_name": "Activation", "config": {"name": "activation_19", "trainable": true, "dtype": "float32", "activation": "relu"}, "name": "activation_19", "inbound_nodes": [[["inception_4a_3x3_bn1", 0, 0, {}]]]}, {"class_name": "Activation", "config": {"name": "activation_21", "trainable": true, "dtype": "float32", "activation": "relu"}, "name": "activation_21", "inbound_nodes": [[["inception_4a_5x5_bn1", 0, 0, {}]]]}, {"class_name": "Lambda", "config": {"name": "sqrt_4a", "trainable": true, "dtype": "float32", "function": ["4wEAAAAAAAAAAAAAAAEAAAADAAAAUwAAAPMKAAAAdACgAXwAoQFTAKkBTqkC2gFL2gRzcXJ0qQHa\nAXipAHIIAAAA+iIvcHJvamVjdC93b3Jrc3BhY2UvcHVibGljL21vZGVsLnB52gg8bGFtYmRhPvUA\nAADzAgAAAAoA\n", null, null], "function_type": "lambda", "module": "__main__", "output_shape": null, "output_shape_type": "raw", "output_shape_module": null, "arguments": {}}, "name": "sqrt_4a", "inbound_nodes": [[["mult9_4a", 0, 0, {}]]]}, {"class_name": "ZeroPadding2D", "config": {"name": "zero_padding2d_13", "trainable": true, "dtype": "float32", "padding": [[1, 1], [1, 1]], "data_format": "channels_last"}, "name": "zero_padding2d_13", "inbound_nodes": [[["activation_19", 0, 0, {}]]]}, {"class_name": "ZeroPadding2D", "config": {"name": "zero_padding2d_14", "trainable": true, "dtype": "float32", "padding": [[2, 2], [2, 2]], "data_format": "channels_last"}, "name": "zero_padding2d_14", "inbound_nodes": [[["activation_21", 0, 0, {}]]]}, {"class_name": "Conv2D", "config": {"name": "inception_4a_pool_conv", "trainable": true, "dtype": "float32", "filters": 128, "kernel_size": [1, 1], "strides": [1, 1], "padding": "valid", "data_format": "channels_last", "dilation_rate": [1, 1], "groups": 1, "activation": "linear", "use_bias": true, "kernel_initializer": {"module": "keras.initializers", "class_name": "GlorotUniform", "config": {"seed": null}, "registered_name": null}, "bias_initializer": {"module": "keras.initializers", "class_name": "Zeros", "config": {}, "registered_name": null}, "kernel_regularizer": null, "bias_regularizer": null, "activity_regularizer": null, "kernel_constraint": null, "bias_constraint": null}, "name": "inception_4a_pool_conv", "inbound_nodes": [[["sqrt_4a", 0, 0, {}]]]}, {"class_name": "Conv2D", "config": {"name": "inception_4a_3x3_conv2", "trainable": true, "dtype": "float32", "filters": 192, "kernel_size": [3, 3], "strides": [1, 1], "padding": "valid", "data_format": "channels_last", "dilation_rate": [1, 1], "groups": 1, "activation": "linear", "use_bias": true, "kernel_initializer": {"module": "keras.initializers", "class_name": "GlorotUniform", "config": {"seed": null}, "registered_name": null}, "bias_initializer": {"module": "keras.initializers", "class_name": "Zeros", "config": {}, "registered_name": null}, "kernel_regularizer": null, "bias_regularizer": null, "activity_regularizer": null, "kernel_constraint": null, "bias_constraint": null}, "name": "inception_4a_3x3_conv2", "inbound_nodes": [[["zero_padding2d_13", 0, 0, {}]]]}, {"class_name": "Conv2D", "config": {"name": "inception_4a_5x5_conv2", "trainable": true, "dtype": "float32", "filters": 64, "kernel_size": [5, 5], "strides": [1, 1], "padding": "valid", "data_format": "channels_last", "dilation_rate": [1, 1], "groups": 1, "activation": "linear", "use_bias": true, "kernel_initializer": {"module": "keras.initializers", "class_name": "GlorotUniform", "config": {"seed": null}, "registered_name": null}, "bias_initializer": {"module": "keras.initializers", "class_name": "Zeros", "config": {}, "registered_name": null}, "kernel_regularizer": null, "bias_regularizer": null, "activity_regularizer": null, "kernel_constraint": null, "bias_constraint": null}, "name": "inception_4a_5x5_conv2", "inbound_nodes": [[["zero_padding2d_14", 0, 0, {}]]]}, {"class_name": "BatchNormalization", "config": {"name": "inception_4a_pool_bn", "trainable": true, "dtype": "float32", "axis": [3], "momentum": 0.99, "epsilon": 1e-05, "center": true, "scale": true, "beta_initializer": {"module": "keras.initializers", "class_name": "Zeros", "config": {}, "registered_name": null}, "gamma_initializer": {"module": "keras.initializers", "class_name": "Ones", "config": {}, "registered_name": null}, "moving_mean_initializer": {"module": "keras.initializers", "class_name": "Zeros", "config": {}, "registered_name": null}, "moving_variance_initializer": {"module": "keras.initializers", "class_name": "Ones", "config": {}, "registered_name": null}, "beta_regularizer": null, "gamma_regularizer": null, "beta_constraint": null, "gamma_constraint": null}, "name": "inception_4a_pool_bn", "inbound_nodes": [[["inception_4a_pool_conv", 0, 0, {}]]]}, {"class_name": "Conv2D", "config": {"name": "inception_4a_1x1_conv", "trainable": true, "dtype": "float32", "filters": 256, "kernel_size": [1, 1], "strides": [1, 1], "padding": "valid", "data_format": "channels_last", "dilation_rate": [1, 1], "groups": 1, "activation": "linear", "use_bias": true, "kernel_initializer": {"module": "keras.initializers", "class_name": "GlorotUniform", "config": {"seed": null}, "registered_name": null}, "bias_initializer": {"module": "keras.initializers", "class_name": "Zeros", "config": {}, "registered_name": null}, "kernel_regularizer": null, "bias_regularizer": null, "activity_regularizer": null, "kernel_constraint": null, "bias_constraint": null}, "name": "inception_4a_1x1_conv", "inbound_nodes": [[["concatenate_2", 0, 0, {}]]]}, {"class_name": "BatchNormalization", "config": {"name": "inception_4a_3x3_bn2", "trainable": true, "dtype": "float32", "axis": [3], "momentum": 0.99, "epsilon": 1e-05, "center": true, "scale": true, "beta_initializer": {"module": "keras.initializers", "class_name": "Zeros", "config": {}, "registered_name": null}, "gamma_initializer": {"module": "keras.initializers", "class_name": "Ones", "config": {}, "registered_name": null}, "moving_mean_initializer": {"module": "keras.initializers", "class_name": "Zeros", "config": {}, "registered_name": null}, "moving_variance_initializer": {"module": "keras.initializers", "class_name": "Ones", "config": {}, "registered_name": null}, "beta_regularizer": null, "gamma_regularizer": null, "beta_constraint": null, "gamma_constraint": null}, "name": "inception_4a_3x3_bn2", "inbound_nodes": [[["inception_4a_3x3_conv2", 0, 0, {}]]]}, {"class_name": "BatchNormalization", "config": {"name": "inception_4a_5x5_bn2", "trainable": true, "dtype": "float32", "axis": [3], "momentum": 0.99, "epsilon": 1e-05, "center": true, "scale": true, "beta_initializer": {"module": "keras.initializers", "class_name": "Zeros", "config": {}, "registered_name": null}, "gamma_initializer": {"module": "keras.initializers", "class_name": "Ones", "config": {}, "registered_name": null}, "moving_mean_initializer": {"module": "keras.initializers", "class_name": "Zeros", "config": {}, "registered_name": null}, "moving_variance_initializer": {"module": "keras.initializers", "class_name": "Ones", "config": {}, "registered_name": null}, "beta_regularizer": null, "gamma_regularizer": null, "beta_constraint": null, "gamma_constraint": null}, "name": "inception_4a_5x5_bn2", "inbound_nodes": [[["inception_4a_5x5_conv2", 0, 0, {}]]]}, {"class_name": "Activation", "config": {"name": "activation_23", "trainable": true, "dtype": "float32", "activation": "relu"}, "name": "activation_23", "inbound_nodes": [[["inception_4a_pool_bn", 0, 0, {}]]]}, {"class_name": "BatchNormalization", "config": {"name": "inception_4a_1x1_bn", "trainable": true, "dtype": "float32", "axis": [3], "momentum": 0.99, "epsilon": 1e-05, "center": true, "scale": true, "beta_initializer": {"module": "keras.initializers", "class_name": "Zeros", "config": {}, "registered_name": null}, "gamma_initializer": {"module": "keras.initializers", "class_name": "Ones", "config": {}, "registered_name": null}, "moving_mean_initializer": {"module": "keras.initializers", "class_name": "Zeros", "config": {}, "registered_name": null}, "moving_variance_initializer": {"module": "keras.initializers", "class_name": "Ones", "config": {}, "registered_name": null}, "beta_regularizer": null, "gamma_regularizer": null, "beta_constraint": null, "gamma_constraint": null}, "name": "inception_4a_1x1_bn", "inbound_nodes": [[["inception_4a_1x1_conv", 0, 0, {}]]]}, {"class_name": "Activation", "config": {"name": "activation_20", "trainable": true, "dtype": "float32", "activation": "relu"}, "name": "activation_20", "inbound_nodes": [[["inception_4a_3x3_bn2", 0, 0, {}]]]}, {"class_name": "Activation", "config": {"name": "activation_22", "trainable": true, "dtype": "float32", "activation": "relu"}, "name": "activation_22", "inbound_nodes": [[["inception_4a_5x5_bn2", 0, 0, {}]]]}, {"class_name": "ZeroPadding2D", "config": {"name": "zero_padding2d_15", "trainable": true, "dtype": "float32", "padding": [[2, 2], [2, 2]], "data_format": "channels_last"}, "name": "zero_padding2d_15", "inbound_nodes": [[["activation_23", 0, 0, {}]]]}, {"class_name": "Activation", "config": {"name": "activation_24", "trainable": true, "dtype": "float32", "activation": "relu"}, "name": "activation_24", "inbound_nodes": [[["inception_4a_1x1_bn", 0, 0, {}]]]}, {"class_name": "Concatenate", "config": {"name": "concatenate_3", "trainable": true, "dtype": "float32", "axis": 3}, "name": "concatenate_3", "inbound_nodes": [[["activation_20", 0, 0, {}], ["activation_22", 0, 0, {}], ["zero_padding2d_15", 0, 0, {}], ["activation_24", 0, 0, {}]]]}, {"class_name": "Conv2D", "config": {"name": "inception_4e_3x3_conv1", "trainable": true, "dtype": "float32", "filters": 160, "kernel_size": [1, 1], "strides": [1, 1], "padding": "valid", "data_format": "channels_last", "dilation_rate": [1, 1], "groups": 1, "activation": "linear", "use_bias": true, "kernel_initializer": {"module": "keras.initializers", "class_name": "GlorotUniform", "config": {"seed": null}, "registered_name": null}, "bias_initializer": {"module": "keras.initializers", "class_name": "Zeros", "config": {}, "registered_name": null}, "kernel_regularizer": null, "bias_regularizer": null, "activity_regularizer": null, "kernel_constraint": null, "bias_constraint": null}, "name": "inception_4e_3x3_conv1", "inbound_nodes": [[["concatenate_3", 0, 0, {}]]]}, {"class_name": "Conv2D", "config": {"name": "inception_4e_5x5_conv1", "trainable": true, "dtype": "float32", "filters": 64, "kernel_size": [1, 1], "strides": [1, 1], "padding": "valid", "data_format": "channels_last", "dilation_rate": [1, 1], "groups": 1, "activation": "linear", "use_bias": true, "kernel_initializer": {"module": "keras.initializers", "class_name": "GlorotUniform", "config": {"seed": null}, "registered_name": null}, "bias_initializer": {"module": "keras.initializers", "class_name": "Zeros", "config": {}, "registered_name": null}, "kernel_regularizer": null, "bias_regularizer": null, "activity_regularizer": null, "kernel_constraint": null, "bias_constraint": null}, "name": "inception_4e_5x5_conv1", "inbound_nodes": [[["concatenate_3", 0, 0, {}]]]}, {"class_name": "BatchNormalization", "config": {"name": "inception_4e_3x3_bn1", "trainable": true, "dtype": "float32", "axis": [3], "momentum": 0.99, "epsilon": 1e-05, "center": true, "scale": true, "beta_initializer": {"module": "keras.initializers", "class_name": "Zeros", "config": {}, "registered_name": null}, "gamma_initializer": {"module": "keras.initializers", "class_name": "Ones", "config": {}, "registered_name": null}, "moving_mean_initializer": {"module": "keras.initializers", "class_name": "Zeros", "config": {}, "registered_name": null}, "moving_variance_initializer": {"module": "keras.initializers", "class_name": "Ones", "config": {}, "registered_name": null}, "beta_regularizer": null, "gamma_regularizer": null, "beta_constraint": null, "gamma_constraint": null}, "name": "inception_4e_3x3_bn1", "inbound_nodes": [[["inception_4e_3x3_conv1", 0, 0, {}]]]}, {"class_name": "BatchNormalization", "config": {"name": "inception_4e_5x5_bn1", "trainable": true, "dtype": "float32", "axis": [3], "momentum": 0.99, "epsilon": 1e-05, "center": true, "scale": true, "beta_initializer": {"module": "keras.initializers", "class_name": "Zeros", "config": {}, "registered_name": null}, "gamma_initializer": {"module": "keras.initializers", "class_name": "Ones", "config": {}, "registered_name": null}, "moving_mean_initializer": {"module": "keras.initializers", "class_name": "Zeros", "config": {}, "registered_name": null}, "moving_variance_initializer": {"module": "keras.initializers", "class_name": "Ones", "config": {}, "registered_name": null}, "beta_regularizer": null, "gamma_regularizer": null, "beta_constraint": null, "gamma_constraint": null}, "name": "inception_4e_5x5_bn1", "inbound_nodes": [[["inception_4e_5x5_conv1", 0, 0, {}]]]}, {"class_name": "Activation", "config": {"name": "activation_25", "trainable": true, "dtype": "float32", "activation": "relu"}, "name": "activation_25", "inbound_nodes": [[["inception_4e_3x3_bn1", 0, 0, {}]]]}, {"class_name": "Activation", "config": {"name": "activation_27", "trainable": true, "dtype": "float32", "activation": "relu"}, "name": "activation_27", "inbound_nodes": [[["inception_4e_5x5_bn1", 0, 0, {}]]]}, {"class_name": "ZeroPadding2D", "config": {"name": "zero_padding2d_16", "trainable": true, "dtype": "float32", "padding": [[1, 1], [1, 1]], "data_format": "channels_last"}, "name": "zero_padding2d_16", "inbound_nodes": [[["activation_25", 0, 0, {}]]]}, {"class_name": "ZeroPadding2D", "config": {"name": "zero_padding2d_17", "trainable": true, "dtype": "float32", "padding": [[2, 2], [2, 2]], "data_format": "channels_last"}, "name": "zero_padding2d_17", "inbound_nodes": [[["activation_27", 0, 0, {}]]]}, {"class_name": "Conv2D", "config": {"name": "inception_4e_3x3_conv2", "trainable": true, "dtype": "float32", "filters": 256, "kernel_size": [3, 3], "strides": [2, 2], "padding": "valid", "data_format": "channels_last", "dilation_rate": [1, 1], "groups": 1, "activation": "linear", "use_bias": true, "kernel_initializer": {"module": "keras.initializers", "class_name": "GlorotUniform", "config": {"seed": null}, "registered_name": null}, "bias_initializer": {"module": "keras.initializers", "class_name": "Zeros", "config": {}, "registered_name": null}, "kernel_regularizer": null, "bias_regularizer": null, "activity_regularizer": null, "kernel_constraint": null, "bias_constraint": null}, "name": "inception_4e_3x3_conv2", "inbound_nodes": [[["zero_padding2d_16", 0, 0, {}]]]}, {"class_name": "Conv2D", "config": {"name": "inception_4e_5x5_conv2", "trainable": true, "dtype": "float32", "filters": 128, "kernel_size": [5, 5], "strides": [2, 2], "padding": "valid", "data_format": "channels_last", "dilation_rate": [1, 1], "groups": 1, "activation": "linear", "use_bias": true, "kernel_initializer": {"module": "keras.initializers", "class_name": "GlorotUniform", "config": {"seed": null}, "registered_name": null}, "bias_initializer": {"module": "keras.initializers", "class_name": "Zeros", "config": {}, "registered_name": null}, "kernel_regularizer": null, "bias_regularizer": null, "activity_regularizer": null, "kernel_constraint": null, "bias_constraint": null}, "name": "inception_4e_5x5_conv2", "inbound_nodes": [[["zero_padding2d_17", 0, 0, {}]]]}, {"class_name": "BatchNormalization", "config": {"name": "inception_4e_3x3_bn2", "trainable": true, "dtype": "float32", "axis": [3], "momentum": 0.99, "epsilon": 1e-05, "center": true, "scale": true, "beta_initializer": {"module": "keras.initializers", "class_name": "Zeros", "config": {}, "registered_name": null}, "gamma_initializer": {"module": "keras.initializers", "class_name": "Ones", "config": {}, "registered_name": null}, "moving_mean_initializer": {"module": "keras.initializers", "class_name": "Zeros", "config": {}, "registered_name": null}, "moving_variance_initializer": {"module": "keras.initializers", "class_name": "Ones", "config": {}, "registered_name": null}, "beta_regularizer": null, "gamma_regularizer": null, "beta_constraint": null, "gamma_constraint": null}, "name": "inception_4e_3x3_bn2", "inbound_nodes": [[["inception_4e_3x3_conv2", 0, 0, {}]]]}, {"class_name": "BatchNormalization", "config": {"name": "inception_4e_5x5_bn2", "trainable": true, "dtype": "float32", "axis": [3], "momentum": 0.99, "epsilon": 1e-05, "center": true, "scale": true, "beta_initializer": {"module": "keras.initializers", "class_name": "Zeros", "config": {}, "registered_name": null}, "gamma_initializer": {"module": "keras.initializers", "class_name": "Ones", "config": {}, "registered_name": null}, "moving_mean_initializer": {"module": "keras.initializers", "class_name": "Zeros", "config": {}, "registered_name": null}, "moving_variance_initializer": {"module": "keras.initializers", "class_name": "Ones", "config": {}, "registered_name": null}, "beta_regularizer": null, "gamma_regularizer": null, "beta_constraint": null, "gamma_constraint": null}, "name": "inception_4e_5x5_bn2", "inbound_nodes": [[["inception_4e_5x5_conv2", 0, 0, {}]]]}, {"class_name": "MaxPooling2D", "config": {"name": "max_pooling2d_4", "trainable": true, "dtype": "float32", "pool_size": [3, 3], "padding": "valid", "strides": [2, 2], "data_format": "channels_last"}, "name": "max_pooling2d_4", "inbound_nodes": [[["concatenate_3", 0, 0, {}]]]}, {"class_name": "Activation", "config": {"name": "activation_26", "trainable": true, "dtype": "float32", "activation": "relu"}, "name": "activation_26", "inbound_nodes": [[["inception_4e_3x3_bn2", 0, 0, {}]]]}, {"class_name": "Activation", "config": {"name": "activation_28", "trainable": true, "dtype": "float32", "activation": "relu"}, "name": "activation_28", "inbound_nodes": [[["inception_4e_5x5_bn2", 0, 0, {}]]]}, {"class_name": "ZeroPadding2D", "config": {"name": "zero_padding2d_18", "trainable": true, "dtype": "float32", "padding": [[0, 1], [0, 1]], "data_format": "channels_last"}, "name": "zero_padding2d_18", "inbound_nodes": [[["max_pooling2d_4", 0, 0, {}]]]}, {"class_name": "Concatenate", "config": {"name": "concatenate_4", "trainable": true, "dtype": "float32", "axis": 3}, "name": "concatenate_4", "inbound_nodes": [[["activation_26", 0, 0, {}], ["activation_28", 0, 0, {}], ["zero_padding2d_18", 0, 0, {}]]]}, {"class_name": "Lambda", "config": {"name": "power2_5a", "trainable": true, "dtype": "float32", "function": ["4wEAAAAAAAAAAAAAAAEAAAACAAAAUwAAAPMIAAAAfABkARMAUwCpAk7pAgAAAKkAqQHaAXhyBAAA\nAHIEAAAA+iIvcHJvamVjdC93b3Jrc3BhY2UvcHVibGljL21vZGVsLnB52gg8bGFtYmRhPkMBAADz\nAgAAAAgA\n", null, null], "function_type": "lambda", "module": "__main__", "output_shape": null, "output_shape_type": "raw", "output_shape_module": null, "arguments": {}}, "name": "power2_5a", "inbound_nodes": [[["concatenate_4", 0, 0, {}]]]}, {"class_name": "Conv2D", "config": {"name": "inception_5a_3x3_conv1", "trainable": true, "dtype": "float32", "filters": 96, "kernel_size": [1, 1], "strides": [1, 1], "padding": "valid", "data_format": "channels_last", "dilation_rate": [1, 1], "groups": 1, "activation": "linear", "use_bias": true, "kernel_initializer": {"module": "keras.initializers", "class_name": "GlorotUniform", "config": {"seed": null}, "registered_name": null}, "bias_initializer": {"module": "keras.initializers", "class_name": "Zeros", "config": {}, "registered_name": null}, "kernel_regularizer": null, "bias_regularizer": null, "activity_regularizer": null, "kernel_constraint": null, "bias_constraint": null}, "name": "inception_5a_3x3_conv1", "inbound_nodes": [[["concatenate_4", 0, 0, {}]]]}, {"class_name": "AveragePooling2D", "config": {"name": "average_pooling2d_2", "trainable": true, "dtype": "float32", "pool_size": [3, 3], "padding": "valid", "strides": [3, 3], "data_format": "channels_last"}, "name": "average_pooling2d_2", "inbound_nodes": [[["power2_5a", 0, 0, {}]]]}, {"class_name": "BatchNormalization", "config": {"name": "inception_5a_3x3_bn1", "trainable": true, "dtype": "float32", "axis": [3], "momentum": 0.99, "epsilon": 1e-05, "center": true, "scale": true, "beta_initializer": {"module": "keras.initializers", "class_name": "Zeros", "config": {}, "registered_name": null}, "gamma_initializer": {"module": "keras.initializers", "class_name": "Ones", "config": {}, "registered_name": null}, "moving_mean_initializer": {"module": "keras.initializers", "class_name": "Zeros", "config": {}, "registered_name": null}, "moving_variance_initializer": {"module": "keras.initializers", "class_name": "Ones", "config": {}, "registered_name": null}, "beta_regularizer": null, "gamma_regularizer": null, "beta_constraint": null, "gamma_constraint": null}, "name": "inception_5a_3x3_bn1", "inbound_nodes": [[["inception_5a_3x3_conv1", 0, 0, {}]]]}, {"class_name": "Lambda", "config": {"name": "mult9_5a", "trainable": true, "dtype": "float32", "function": ["4wEAAAAAAAAAAAAAAAEAAAACAAAAUwAAAPMIAAAAfABkARQAUwCpAk7pCQAAAKkAqQHaAXhyBAAA\nAHIEAAAA+iIvcHJvamVjdC93b3Jrc3BhY2UvcHVibGljL21vZGVsLnB52gg8bGFtYmRhPkUBAADz\nAgAAAAgA\n", null, null], "function_type": "lambda", "module": "__main__", "output_shape": null, "output_shape_type": "raw", "output_shape_module": null, "arguments": {}}, "name": "mult9_5a", "inbound_nodes": [[["average_pooling2d_2", 0, 0, {}]]]}, {"class_name": "Activation", "config": {"name": "activation_29", "trainable": true, "dtype": "float32", "activation": "relu"}, "name": "activation_29", "inbound_nodes": [[["inception_5a_3x3_bn1", 0, 0, {}]]]}, {"class_name": "Lambda", "config": {"name": "sqrt_5a", "trainable": true, "dtype": "float32", "function": ["4wEAAAAAAAAAAAAAAAEAAAADAAAAUwAAAPMKAAAAdACgAXwAoQFTAKkBTqkC2gFL2gRzcXJ0qQHa\nAXipAHIIAAAA+iIvcHJvamVjdC93b3Jrc3BhY2UvcHVibGljL21vZGVsLnB52gg8bGFtYmRhPkYB\nAADzAgAAAAoA\n", null, null], "function_type": "lambda", "module": "__main__", "output_shape": null, "output_shape_type": "raw", "output_shape_module": null, "arguments": {}}, "name": "sqrt_5a", "inbound_nodes": [[["mult9_5a", 0, 0, {}]]]}, {"class_name": "ZeroPadding2D", "config": {"name": "zero_padding2d_19", "trainable": true, "dtype": "float32", "padding": [[1, 1], [1, 1]], "data_format": "channels_last"}, "name": "zero_padding2d_19", "inbound_nodes": [[["activation_29", 0, 0, {}]]]}, {"class_name": "Conv2D", "config": {"name": "inception_5a_pool_conv", "trainable": true, "dtype": "float32", "filters": 96, "kernel_size": [1, 1], "strides": [1, 1], "padding": "valid", "data_format": "channels_last", "dilation_rate": [1, 1], "groups": 1, "activation": "linear", "use_bias": true, "kernel_initializer": {"module": "keras.initializers", "class_name": "GlorotUniform", "config": {"seed": null}, "registered_name": null}, "bias_initializer": {"module": "keras.initializers", "class_name": "Zeros", "config": {}, "registered_name": null}, "kernel_regularizer": null, "bias_regularizer": null, "activity_regularizer": null, "kernel_constraint": null, "bias_constraint": null}, "name": "inception_5a_pool_conv", "inbound_nodes": [[["sqrt_5a", 0, 0, {}]]]}, {"class_name": "Conv2D", "config": {"name": "inception_5a_3x3_conv2", "trainable": true, "dtype": "float32", "filters": 384, "kernel_size": [3, 3], "strides": [1, 1], "padding": "valid", "data_format": "channels_last", "dilation_rate": [1, 1], "groups": 1, "activation": "linear", "use_bias": true, "kernel_initializer": {"module": "keras.initializers", "class_name": "GlorotUniform", "config": {"seed": null}, "registered_name": null}, "bias_initializer": {"module": "keras.initializers", "class_name": "Zeros", "config": {}, "registered_name": null}, "kernel_regularizer": null, "bias_regularizer": null, "activity_regularizer": null, "kernel_constraint": null, "bias_constraint": null}, "name": "inception_5a_3x3_conv2", "inbound_nodes": [[["zero_padding2d_19", 0, 0, {}]]]}, {"class_name": "BatchNormalization", "config": {"name": "inception_5a_pool_bn", "trainable": true, "dtype": "float32", "axis": [3], "momentum": 0.99, "epsilon": 1e-05, "center": true, "scale": true, "beta_initializer": {"module": "keras.initializers", "class_name": "Zeros", "config": {}, "registered_name": null}, "gamma_initializer": {"module": "keras.initializers", "class_name": "Ones", "config": {}, "registered_name": null}, "moving_mean_initializer": {"module": "keras.initializers", "class_name": "Zeros", "config": {}, "registered_name": null}, "moving_variance_initializer": {"module": "keras.initializers", "class_name": "Ones", "config": {}, "registered_name": null}, "beta_regularizer": null, "gamma_regularizer": null, "beta_constraint": null, "gamma_constraint": null}, "name": "inception_5a_pool_bn", "inbound_nodes": [[["inception_5a_pool_conv", 0, 0, {}]]]}, {"class_name": "Conv2D", "config": {"name": "inception_5a_1x1_conv", "trainable": true, "dtype": "float32", "filters": 256, "kernel_size": [1, 1], "strides": [1, 1], "padding": "valid", "data_format": "channels_last", "dilation_rate": [1, 1], "groups": 1, "activation": "linear", "use_bias": true, "kernel_initializer": {"module": "keras.initializers", "class_name": "GlorotUniform", "config": {"seed": null}, "registered_name": null}, "bias_initializer": {"module": "keras.initializers", "class_name": "Zeros", "config": {}, "registered_name": null}, "kernel_regularizer": null, "bias_regularizer": null, "activity_regularizer": null, "kernel_constraint": null, "bias_constraint": null}, "name": "inception_5a_1x1_conv", "inbound_nodes": [[["concatenate_4", 0, 0, {}]]]}, {"class_name": "BatchNormalization", "config": {"name": "inception_5a_3x3_bn2", "trainable": true, "dtype": "float32", "axis": [3], "momentum": 0.99, "epsilon": 1e-05, "center": true, "scale": true, "beta_initializer": {"module": "keras.initializers", "class_name": "Zeros", "config": {}, "registered_name": null}, "gamma_initializer": {"module": "keras.initializers", "class_name": "Ones", "config": {}, "registered_name": null}, "moving_mean_initializer": {"module": "keras.initializers", "class_name": "Zeros", "config": {}, "registered_name": null}, "moving_variance_initializer": {"module": "keras.initializers", "class_name": "Ones", "config": {}, "registered_name": null}, "beta_regularizer": null, "gamma_regularizer": null, "beta_constraint": null, "gamma_constraint": null}, "name": "inception_5a_3x3_bn2", "inbound_nodes": [[["inception_5a_3x3_conv2", 0, 0, {}]]]}, {"class_name": "Activation", "config": {"name": "activation_31", "trainable": true, "dtype": "float32", "activation": "relu"}, "name": "activation_31", "inbound_nodes": [[["inception_5a_pool_bn", 0, 0, {}]]]}, {"class_name": "BatchNormalization", "config": {"name": "inception_5a_1x1_bn", "trainable": true, "dtype": "float32", "axis": [3], "momentum": 0.99, "epsilon": 1e-05, "center": true, "scale": true, "beta_initializer": {"module": "keras.initializers", "class_name": "Zeros", "config": {}, "registered_name": null}, "gamma_initializer": {"module": "keras.initializers", "class_name": "Ones", "config": {}, "registered_name": null}, "moving_mean_initializer": {"module": "keras.initializers", "class_name": "Zeros", "config": {}, "registered_name": null}, "moving_variance_initializer": {"module": "keras.initializers", "class_name": "Ones", "config": {}, "registered_name": null}, "beta_regularizer": null, "gamma_regularizer": null, "beta_constraint": null, "gamma_constraint": null}, "name": "inception_5a_1x1_bn", "inbound_nodes": [[["inception_5a_1x1_conv", 0, 0, {}]]]}, {"class_name": "Activation", "config": {"name": "activation_30", "trainable": true, "dtype": "float32", "activation": "relu"}, "name": "activation_30", "inbound_nodes": [[["inception_5a_3x3_bn2", 0, 0, {}]]]}, {"class_name": "ZeroPadding2D", "config": {"name": "zero_padding2d_20", "trainable": true, "dtype": "float32", "padding": [[1, 1], [1, 1]], "data_format": "channels_last"}, "name": "zero_padding2d_20", "inbound_nodes": [[["activation_31", 0, 0, {}]]]}, {"class_name": "Activation", "config": {"name": "activation_32", "trainable": true, "dtype": "float32", "activation": "relu"}, "name": "activation_32", "inbound_nodes": [[["inception_5a_1x1_bn", 0, 0, {}]]]}, {"class_name": "Concatenate", "config": {"name": "concatenate_5", "trainable": true, "dtype": "float32", "axis": 3}, "name": "concatenate_5", "inbound_nodes": [[["activation_30", 0, 0, {}], ["zero_padding2d_20", 0, 0, {}], ["activation_32", 0, 0, {}]]]}, {"class_name": "Conv2D", "config": {"name": "inception_5b_3x3_conv1", "trainable": true, "dtype": "float32", "filters": 96, "kernel_size": [1, 1], "strides": [1, 1], "padding": "valid", "data_format": "channels_last", "dilation_rate": [1, 1], "groups": 1, "activation": "linear", "use_bias": true, "kernel_initializer": {"module": "keras.initializers", "class_name": "GlorotUniform", "config": {"seed": null}, "registered_name": null}, "bias_initializer": {"module": "keras.initializers", "class_name": "Zeros", "config": {}, "registered_name": null}, "kernel_regularizer": null, "bias_regularizer": null, "activity_regularizer": null, "kernel_constraint": null, "bias_constraint": null}, "name": "inception_5b_3x3_conv1", "inbound_nodes": [[["concatenate_5", 0, 0, {}]]]}, {"class_name": "BatchNormalization", "config": {"name": "inception_5b_3x3_bn1", "trainable": true, "dtype": "float32", "axis": [3], "momentum": 0.99, "epsilon": 1e-05, "center": true, "scale": true, "beta_initializer": {"module": "keras.initializers", "class_name": "Zeros", "config": {}, "registered_name": null}, "gamma_initializer": {"module": "keras.initializers", "class_name": "Ones", "config": {}, "registered_name": null}, "moving_mean_initializer": {"module": "keras.initializers", "class_name": "Zeros", "config": {}, "registered_name": null}, "moving_variance_initializer": {"module": "keras.initializers", "class_name": "Ones", "config": {}, "registered_name": null}, "beta_regularizer": null, "gamma_regularizer": null, "beta_constraint": null, "gamma_constraint": null}, "name": "inception_5b_3x3_bn1", "inbound_nodes": [[["inception_5b_3x3_conv1", 0, 0, {}]]]}, {"class_name": "Activation", "config": {"name": "activation_33", "trainable": true, "dtype": "float32", "activation": "relu"}, "name": "activation_33", "inbound_nodes": [[["inception_5b_3x3_bn1", 0, 0, {}]]]}, {"class_name": "MaxPooling2D", "config": {"name": "max_pooling2d_5", "trainable": true, "dtype": "float32", "pool_size": [3, 3], "padding": "valid", "strides": [2, 2], "data_format": "channels_last"}, "name": "max_pooling2d_5", "inbound_nodes": [[["concatenate_5", 0, 0, {}]]]}, {"class_name": "ZeroPadding2D", "config": {"name": "zero_padding2d_21", "trainable": true, "dtype": "float32", "padding": [[1, 1], [1, 1]], "data_format": "channels_last"}, "name": "zero_padding2d_21", "inbound_nodes": [[["activation_33", 0, 0, {}]]]}, {"class_name": "Conv2D", "config": {"name": "inception_5b_pool_conv", "trainable": true, "dtype": "float32", "filters": 96, "kernel_size": [1, 1], "strides": [1, 1], "padding": "valid", "data_format": "channels_last", "dilation_rate": [1, 1], "groups": 1, "activation": "linear", "use_bias": true, "kernel_initializer": {"module": "keras.initializers", "class_name": "GlorotUniform", "config": {"seed": null}, "registered_name": null}, "bias_initializer": {"module": "keras.initializers", "class_name": "Zeros", "config": {}, "registered_name": null}, "kernel_regularizer": null, "bias_regularizer": null, "activity_regularizer": null, "kernel_constraint": null, "bias_constraint": null}, "name": "inception_5b_pool_conv", "inbound_nodes": [[["max_pooling2d_5", 0, 0, {}]]]}, {"class_name": "Conv2D", "config": {"name": "inception_5b_3x3_conv2", "trainable": true, "dtype": "float32", "filters": 384, "kernel_size": [3, 3], "strides": [1, 1], "padding": "valid", "data_format": "channels_last", "dilation_rate": [1, 1], "groups": 1, "activation": "linear", "use_bias": true, "kernel_initializer": {"module": "keras.initializers", "class_name": "GlorotUniform", "config": {"seed": null}, "registered_name": null}, "bias_initializer": {"module": "keras.initializers", "class_name": "Zeros", "config": {}, "registered_name": null}, "kernel_regularizer": null, "bias_regularizer": null, "activity_regularizer": null, "kernel_constraint": null, "bias_constraint": null}, "name": "inception_5b_3x3_conv2", "inbound_nodes": [[["zero_padding2d_21", 0, 0, {}]]]}, {"class_name": "BatchNormalization", "config": {"name": "inception_5b_pool_bn", "trainable": true, "dtype": "float32", "axis": [3], "momentum": 0.99, "epsilon": 1e-05, "center": true, "scale": true, "beta_initializer": {"module": "keras.initializers", "class_name": "Zeros", "config": {}, "registered_name": null}, "gamma_initializer": {"module": "keras.initializers", "class_name": "Ones", "config": {}, "registered_name": null}, "moving_mean_initializer": {"module": "keras.initializers", "class_name": "Zeros", "config": {}, "registered_name": null}, "moving_variance_initializer": {"module": "keras.initializers", "class_name": "Ones", "config": {}, "registered_name": null}, "beta_regularizer": null, "gamma_regularizer": null, "beta_constraint": null, "gamma_constraint": null}, "name": "inception_5b_pool_bn", "inbound_nodes": [[["inception_5b_pool_conv", 0, 0, {}]]]}, {"class_name": "Conv2D", "config": {"name": "inception_5b_1x1_conv", "trainable": true, "dtype": "float32", "filters": 256, "kernel_size": [1, 1], "strides": [1, 1], "padding": "valid", "data_format": "channels_last", "dilation_rate": [1, 1], "groups": 1, "activation": "linear", "use_bias": true, "kernel_initializer": {"module": "keras.initializers", "class_name": "GlorotUniform", "config": {"seed": null}, "registered_name": null}, "bias_initializer": {"module": "keras.initializers", "class_name": "Zeros", "config": {}, "registered_name": null}, "kernel_regularizer": null, "bias_regularizer": null, "activity_regularizer": null, "kernel_constraint": null, "bias_constraint": null}, "name": "inception_5b_1x1_conv", "inbound_nodes": [[["concatenate_5", 0, 0, {}]]]}, {"class_name": "BatchNormalization", "config": {"name": "inception_5b_3x3_bn2", "trainable": true, "dtype": "float32", "axis": [3], "momentum": 0.99, "epsilon": 1e-05, "center": true, "scale": true, "beta_initializer": {"module": "keras.initializers", "class_name": "Zeros", "config": {}, "registered_name": null}, "gamma_initializer": {"module": "keras.initializers", "class_name": "Ones", "config": {}, "registered_name": null}, "moving_mean_initializer": {"module": "keras.initializers", "class_name": "Zeros", "config": {}, "registered_name": null}, "moving_variance_initializer": {"module": "keras.initializers", "class_name": "Ones", "config": {}, "registered_name": null}, "beta_regularizer": null, "gamma_regularizer": null, "beta_constraint": null, "gamma_constraint": null}, "name": "inception_5b_3x3_bn2", "inbound_nodes": [[["inception_5b_3x3_conv2", 0, 0, {}]]]}, {"class_name": "Activation", "config": {"name": "activation_35", "trainable": true, "dtype": "float32", "activation": "relu"}, "name": "activation_35", "inbound_nodes": [[["inception_5b_pool_bn", 0, 0, {}]]]}, {"class_name": "BatchNormalization", "config": {"name": "inception_5b_1x1_bn", "trainable": true, "dtype": "float32", "axis": [3], "momentum": 0.99, "epsilon": 1e-05, "center": true, "scale": true, "beta_initializer": {"module": "keras.initializers", "class_name": "Zeros", "config": {}, "registered_name": null}, "gamma_initializer": {"module": "keras.initializers", "class_name": "Ones", "config": {}, "registered_name": null}, "moving_mean_initializer": {"module": "keras.initializers", "class_name": "Zeros", "config": {}, "registered_name": null}, "moving_variance_initializer": {"module": "keras.initializers", "class_name": "Ones", "config": {}, "registered_name": null}, "beta_regularizer": null, "gamma_regularizer": null, "beta_constraint": null, "gamma_constraint": null}, "name": "inception_5b_1x1_bn", "inbound_nodes": [[["inception_5b_1x1_conv", 0, 0, {}]]]}, {"class_name": "Activation", "config": {"name": "activation_34", "trainable": true, "dtype": "float32", "activation": "relu"}, "name": "activation_34", "inbound_nodes": [[["inception_5b_3x3_bn2", 0, 0, {}]]]}, {"class_name": "ZeroPadding2D", "config": {"name": "zero_padding2d_22", "trainable": true, "dtype": "float32", "padding": [[1, 1], [1, 1]], "data_format": "channels_last"}, "name": "zero_padding2d_22", "inbound_nodes": [[["activation_35", 0, 0, {}]]]}, {"class_name": "Activation", "config": {"name": "activation_36", "trainable": true, "dtype": "float32", "activation": "relu"}, "name": "activation_36", "inbound_nodes": [[["inception_5b_1x1_bn", 0, 0, {}]]]}, {"class_name": "Concatenate", "config": {"name": "concatenate_6", "trainable": true, "dtype": "float32", "axis": 3}, "name": "concatenate_6", "inbound_nodes": [[["activation_34", 0, 0, {}], ["zero_padding2d_22", 0, 0, {}], ["activation_36", 0, 0, {}]]]}, {"class_name": "AveragePooling2D", "config": {"name": "average_pooling2d_3", "trainable": true, "dtype": "float32", "pool_size": [3, 3], "padding": "valid", "strides": [1, 1], "data_format": "channels_last"}, "name": "average_pooling2d_3", "inbound_nodes": [[["concatenate_6", 0, 0, {}]]]}, {"class_name": "Flatten", "config": {"name": "flatten", "trainable": true, "dtype": "float32", "data_format": "channels_last"}, "name": "flatten", "inbound_nodes": [[["average_pooling2d_3", 0, 0, {}]]]}, {"class_name": "Dense", "config": {"name": "dense_layer", "trainable": true, "dtype": "float32", "units": 128, "activation": "linear", "use_bias": true, "kernel_initializer": {"module": "keras.initializers", "class_name": "GlorotUniform", "config": {"seed": null}, "registered_name": null}, "bias_initializer": {"module": "keras.initializers", "class_name": "Zeros", "config": {}, "registered_name": null}, "kernel_regularizer": null, "bias_regularizer": null, "activity_regularizer": null, "kernel_constraint": null, "bias_constraint": null}, "name": "dense_layer", "inbound_nodes": [[["flatten", 0, 0, {}]]]}, {"class_name": "Lambda", "config": {"name": "norm_layer", "trainable": true, "dtype": "float32", "function": ["4wEAAAAAAAAAAAAAAAEAAAAEAAAAUwAAAHMOAAAAdABqAXwAZAFkAo0CUwApA07pAQAAAKkB2gRh\neGlzKQLaAUvaDGwyX25vcm1hbGl6ZakB2gF4qQByCAAAAPoiL3Byb2plY3Qvd29ya3NwYWNlL3B1\nYmxpYy9tb2RlbC5wedoIPGxhbWJkYT6FAQAAcwIAAAAOAA==\n", null, null], "function_type": "lambda", "module": "__main__", "output_shape": null, "output_shape_type": "raw", "output_shape_module": null, "arguments": {}}, "name": "norm_layer", "inbound_nodes": [[["dense_layer", 0, 0, {}]]]}], "input_layers": [["input_1", 0, 0]], "output_layers": [["norm_layer", 0, 0]]}}}, "weightsManifest": [{"paths": ["group1-shard1of4.bin", "group1-shard2of4.bin", "group1-shard3of4.bin", "group1-shard4of4.bin"], "weights": [{"name": "bn1/gamma", "shape": [64], "dtype": "float32"}, {"name": "bn1/beta", "shape": [64], "dtype": "float32"}, {"name": "bn1/moving_mean", "shape": [64], "dtype": "float32"}, {"name": "bn1/moving_variance", "shape": [64], "dtype": "float32"}, {"name": "bn2/gamma", "shape": [64], "dtype": "float32"}, {"name": "bn2/beta", "shape": [64], "dtype": "float32"}, {"name": "bn2/moving_mean", "shape": [64], "dtype": "float32"}, {"name": "bn2/moving_variance", "shape": [64], "dtype": "float32"}, {"name": "bn3/gamma", "shape": [192], "dtype": "float32"}, {"name": "bn3/beta", "shape": [192], "dtype": "float32"}, {"name": "bn3/moving_mean", "shape": [192], "dtype": "float32"}, {"name": "bn3/moving_variance", "shape": [192], "dtype": "float32"}, {"name": "conv1/kernel", "shape": [7, 7, 3, 64], "dtype": "float32"}, {"name": "conv1/bias", "shape": [64], "dtype": "float32"}, {"name": "conv2/kernel", "shape": [1, 1, 64, 64], "dtype": "float32"}, {"name": "conv2/bias", "shape": [64], "dtype": "float32"}, {"name": "conv3/kernel", "shape": [3, 3, 64, 192], "dtype": "float32"}, {"name": "conv3/bias", "shape": [192], "dtype": "float32"}, {"name": "dense_layer/kernel", "shape": [736, 128], "dtype": "float32"}, {"name": "dense_layer/bias", "shape": [128], "dtype": "float32"}, {"name": "inception_3a_1x1_bn/gamma", "shape": [64], "dtype": "float32"}, {"name": "inception_3a_1x1_bn/beta", "shape": [64], "dtype": "float32"}, {"name": "inception_3a_1x1_bn/moving_mean", "shape": [64], "dtype": "float32"}, {"name": "inception_3a_1x1_bn/moving_variance", "shape": [64], "dtype": "float32"}, {"name": "inception_3a_1x1_conv/kernel", "shape": [1, 1, 192, 64], "dtype": "float32"}, {"name": "inception_3a_1x1_conv/bias", "shape": [64], "dtype": "float32"}, {"name": "inception_3a_3x3_bn1/gamma", "shape": [96], "dtype": "float32"}, {"name": "inception_3a_3x3_bn1/beta", "shape": [96], "dtype": "float32"}, {"name": "inception_3a_3x3_bn1/moving_mean", "shape": [96], "dtype": "float32"}, {"name": "inception_3a_3x3_bn1/moving_variance", "shape": [96], "dtype": "float32"}, {"name": "inception_3a_3x3_bn2/gamma", "shape": [128], "dtype": "float32"}, {"name": "inception_3a_3x3_bn2/beta", "shape": [128], "dtype": "float32"}, {"name": "inception_3a_3x3_bn2/moving_mean", "shape": [128], "dtype": "float32"}, {"name": "inception_3a_3x3_bn2/moving_variance", "shape": [128], "dtype": "float32"}, {"name": "inception_3a_3x3_conv1/kernel", "shape": [1, 1, 192, 96], "dtype": "float32"}, {"name": "inception_3a_3x3_conv1/bias", "shape": [96], "dtype": "float32"}, {"name": "inception_3a_3x3_conv2/kernel", "shape": [3, 3, 96, 128], "dtype": "float32"}, {"name": "inception_3a_3x3_conv2/bias", "shape": [128], "dtype": "float32"}, {"name": "inception_3a_5x5_bn1/gamma", "shape": [16], "dtype": "float32"}, {"name": "inception_3a_5x5_bn1/beta", "shape": [16], "dtype": "float32"}, {"name": "inception_3a_5x5_bn1/moving_mean", "shape": [16], "dtype": "float32"}, {"name": "inception_3a_5x5_bn1/moving_variance", "shape": [16], "dtype": "float32"}, {"name": "inception_3a_5x5_bn2/gamma", "shape": [32], "dtype": "float32"}, {"name": "inception_3a_5x5_bn2/beta", "shape": [32], "dtype": "float32"}, {"name": "inception_3a_5x5_bn2/moving_mean", "shape": [32], "dtype": "float32"}, {"name": "inception_3a_5x5_bn2/moving_variance", "shape": [32], "dtype": "float32"}, {"name": "inception_3a_5x5_conv1/kernel", "shape": [1, 1, 192, 16], "dtype": "float32"}, {"name": "inception_3a_5x5_conv1/bias", "shape": [16], "dtype": "float32"}, {"name": "inception_3a_5x5_conv2/kernel", "shape": [5, 5, 16, 32], "dtype": "float32"}, {"name": "inception_3a_5x5_conv2/bias", "shape": [32], "dtype": "float32"}, {"name": "inception_3a_pool_bn/gamma", "shape": [32], "dtype": "float32"}, {"name": "inception_3a_pool_bn/beta", "shape": [32], "dtype": "float32"}, {"name": "inception_3a_pool_bn/moving_mean", "shape": [32], "dtype": "float32"}, {"name": "inception_3a_pool_bn/moving_variance", "shape": [32], "dtype": "float32"}, {"name": "inception_3a_pool_conv/kernel", "shape": [1, 1, 192, 32], "dtype": "float32"}, {"name": "inception_3a_pool_conv/bias", "shape": [32], "dtype": "float32"}, {"name": "inception_3b_1x1_bn/gamma", "shape": [64], "dtype": "float32"}, {"name": "inception_3b_1x1_bn/beta", "shape": [64], "dtype": "float32"}, {"name": "inception_3b_1x1_bn/moving_mean", "shape": [64], "dtype": "float32"}, {"name": "inception_3b_1x1_bn/moving_variance", "shape": [64], "dtype": "float32"}, {"name": "inception_3b_1x1_conv/kernel", "shape": [1, 1, 256, 64], "dtype": "float32"}, {"name": "inception_3b_1x1_conv/bias", "shape": [64], "dtype": "float32"}, {"name": "inception_3b_3x3_bn1/gamma", "shape": [96], "dtype": "float32"}, {"name": "inception_3b_3x3_bn1/beta", "shape": [96], "dtype": "float32"}, {"name": "inception_3b_3x3_bn1/moving_mean", "shape": [96], "dtype": "float32"}, {"name": "inception_3b_3x3_bn1/moving_variance", "shape": [96], "dtype": "float32"}, {"name": "inception_3b_3x3_bn2/gamma", "shape": [128], "dtype": "float32"}, {"name": "inception_3b_3x3_bn2/beta", "shape": [128], "dtype": "float32"}, {"name": "inception_3b_3x3_bn2/moving_mean", "shape": [128], "dtype": "float32"}, {"name": "inception_3b_3x3_bn2/moving_variance", "shape": [128], "dtype": "float32"}, {"name": "inception_3b_3x3_conv1/kernel", "shape": [1, 1, 256, 96], "dtype": "float32"}, {"name": "inception_3b_3x3_conv1/bias", "shape": [96], "dtype": "float32"}, {"name": "inception_3b_3x3_conv2/kernel", "shape": [3, 3, 96, 128], "dtype": "float32"}, {"name": "inception_3b_3x3_conv2/bias", "shape": [128], "dtype": "float32"}, {"name": "inception_3b_5x5_bn1/gamma", "shape": [32], "dtype": "float32"}, {"name": "inception_3b_5x5_bn1/beta", "shape": [32], "dtype": "float32"}, {"name": "inception_3b_5x5_bn1/moving_mean", "shape": [32], "dtype": "float32"}, {"name": "inception_3b_5x5_bn1/moving_variance", "shape": [32], "dtype": "float32"}, {"name": "inception_3b_5x5_bn2/gamma", "shape": [64], "dtype": "float32"}, {"name": "inception_3b_5x5_bn2/beta", "shape": [64], "dtype": "float32"}, {"name": "inception_3b_5x5_bn2/moving_mean", "shape": [64], "dtype": "float32"}, {"name": "inception_3b_5x5_bn2/moving_variance", "shape": [64], "dtype": "float32"}, {"name": "inception_3b_5x5_conv1/kernel", "shape": [1, 1, 256, 32], "dtype": "float32"}, {"name": "inception_3b_5x5_conv1/bias", "shape": [32], "dtype": "float32"}, {"name": "inception_3b_5x5_conv2/kernel", "shape": [5, 5, 32, 64], "dtype": "float32"}, {"name": "inception_3b_5x5_conv2/bias", "shape": [64], "dtype": "float32"}, {"name": "inception_3b_pool_bn/gamma", "shape": [64], "dtype": "float32"}, {"name": "inception_3b_pool_bn/beta", "shape": [64], "dtype": "float32"}, {"name": "inception_3b_pool_bn/moving_mean", "shape": [64], "dtype": "float32"}, {"name": "inception_3b_pool_bn/moving_variance", "shape": [64], "dtype": "float32"}, {"name": "inception_3b_pool_conv/kernel", "shape": [1, 1, 256, 64], "dtype": "float32"}, {"name": "inception_3b_pool_conv/bias", "shape": [64], "dtype": "float32"}, {"name": "inception_3c_3x3_bn1/gamma", "shape": [128], "dtype": "float32"}, {"name": "inception_3c_3x3_bn1/beta", "shape": [128], "dtype": "float32"}, {"name": "inception_3c_3x3_bn1/moving_mean", "shape": [128], "dtype": "float32"}, {"name": "inception_3c_3x3_bn1/moving_variance", "shape": [128], "dtype": "float32"}, {"name": "inception_3c_3x3_bn2/gamma", "shape": [256], "dtype": "float32"}, {"name": "inception_3c_3x3_bn2/beta", "shape": [256], "dtype": "float32"}, {"name": "inception_3c_3x3_bn2/moving_mean", "shape": [256], "dtype": "float32"}, {"name": "inception_3c_3x3_bn2/moving_variance", "shape": [256], "dtype": "float32"}, {"name": "inception_3c_3x3_conv1/kernel", "shape": [1, 1, 320, 128], "dtype": "float32"}, {"name": "inception_3c_3x3_conv1/bias", "shape": [128], "dtype": "float32"}, {"name": "inception_3c_3x3_conv2/kernel", "shape": [3, 3, 128, 256], "dtype": "float32"}, {"name": "inception_3c_3x3_conv2/bias", "shape": [256], "dtype": "float32"}, {"name": "inception_3c_5x5_bn1/gamma", "shape": [32], "dtype": "float32"}, {"name": "inception_3c_5x5_bn1/beta", "shape": [32], "dtype": "float32"}, {"name": "inception_3c_5x5_bn1/moving_mean", "shape": [32], "dtype": "float32"}, {"name": "inception_3c_5x5_bn1/moving_variance", "shape": [32], "dtype": "float32"}, {"name": "inception_3c_5x5_bn2/gamma", "shape": [64], "dtype": "float32"}, {"name": "inception_3c_5x5_bn2/beta", "shape": [64], "dtype": "float32"}, {"name": "inception_3c_5x5_bn2/moving_mean", "shape": [64], "dtype": "float32"}, {"name": "inception_3c_5x5_bn2/moving_variance", "shape": [64], "dtype": "float32"}, {"name": "inception_3c_5x5_conv1/kernel", "shape": [1, 1, 320, 32], "dtype": "float32"}, {"name": "inception_3c_5x5_conv1/bias", "shape": [32], "dtype": "float32"}, {"name": "inception_3c_5x5_conv2/kernel", "shape": [5, 5, 32, 64], "dtype": "float32"}, {"name": "inception_3c_5x5_conv2/bias", "shape": [64], "dtype": "float32"}, {"name": "inception_4a_1x1_bn/gamma", "shape": [256], "dtype": "float32"}, {"name": "inception_4a_1x1_bn/beta", "shape": [256], "dtype": "float32"}, {"name": "inception_4a_1x1_bn/moving_mean", "shape": [256], "dtype": "float32"}, {"name": "inception_4a_1x1_bn/moving_variance", "shape": [256], "dtype": "float32"}, {"name": "inception_4a_1x1_conv/kernel", "shape": [1, 1, 640, 256], "dtype": "float32"}, {"name": "inception_4a_1x1_conv/bias", "shape": [256], "dtype": "float32"}, {"name": "inception_4a_3x3_bn1/gamma", "shape": [96], "dtype": "float32"}, {"name": "inception_4a_3x3_bn1/beta", "shape": [96], "dtype": "float32"}, {"name": "inception_4a_3x3_bn1/moving_mean", "shape": [96], "dtype": "float32"}, {"name": "inception_4a_3x3_bn1/moving_variance", "shape": [96], "dtype": "float32"}, {"name": "inception_4a_3x3_bn2/gamma", "shape": [192], "dtype": "float32"}, {"name": "inception_4a_3x3_bn2/beta", "shape": [192], "dtype": "float32"}, {"name": "inception_4a_3x3_bn2/moving_mean", "shape": [192], "dtype": "float32"}, {"name": "inception_4a_3x3_bn2/moving_variance", "shape": [192], "dtype": "float32"}, {"name": "inception_4a_3x3_conv1/kernel", "shape": [1, 1, 640, 96], "dtype": "float32"}, {"name": "inception_4a_3x3_conv1/bias", "shape": [96], "dtype": "float32"}, {"name": "inception_4a_3x3_conv2/kernel", "shape": [3, 3, 96, 192], "dtype": "float32"}, {"name": "inception_4a_3x3_conv2/bias", "shape": [192], "dtype": "float32"}, {"name": "inception_4a_5x5_bn1/gamma", "shape": [32], "dtype": "float32"}, {"name": "inception_4a_5x5_bn1/beta", "shape": [32], "dtype": "float32"}, {"name": "inception_4a_5x5_bn1/moving_mean", "shape": [32], "dtype": "float32"}, {"name": "inception_4a_5x5_bn1/moving_variance", "shape": [32], "dtype": "float32"}, {"name": "inception_4a_5x5_bn2/gamma", "shape": [64], "dtype": "float32"}, {"name": "inception_4a_5x5_bn2/beta", "shape": [64], "dtype": "float32"}, {"name": "inception_4a_5x5_bn2/moving_mean", "shape": [64], "dtype": "float32"}, {"name": "inception_4a_5x5_bn2/moving_variance", "shape": [64], "dtype": "float32"}, {"name": "inception_4a_5x5_conv1/kernel", "shape": [1, 1, 640, 32], "dtype": "float32"}, {"name": "inception_4a_5x5_conv1/bias", "shape": [32], "dtype": "float32"}, {"name": "inception_4a_5x5_conv2/kernel", "shape": [5, 5, 32, 64], "dtype": "float32"}, {"name": "inception_4a_5x5_conv2/bias", "shape": [64], "dtype": "float32"}, {"name": "inception_4a_pool_bn/gamma", "shape": [128], "dtype": "float32"}, {"name": "inception_4a_pool_bn/beta", "shape": [128], "dtype": "float32"}, {"name": "inception_4a_pool_bn/moving_mean", "shape": [128], "dtype": "float32"}, {"name": "inception_4a_pool_bn/moving_variance", "shape": [128], "dtype": "float32"}, {"name": "inception_4a_pool_conv/kernel", "shape": [1, 1, 640, 128], "dtype": "float32"}, {"name": "inception_4a_pool_conv/bias", "shape": [128], "dtype": "float32"}, {"name": "inception_4e_3x3_bn1/gamma", "shape": [160], "dtype": "float32"}, {"name": "inception_4e_3x3_bn1/beta", "shape": [160], "dtype": "float32"}, {"name": "inception_4e_3x3_bn1/moving_mean", "shape": [160], "dtype": "float32"}, {"name": "inception_4e_3x3_bn1/moving_variance", "shape": [160], "dtype": "float32"}, {"name": "inception_4e_3x3_bn2/gamma", "shape": [256], "dtype": "float32"}, {"name": "inception_4e_3x3_bn2/beta", "shape": [256], "dtype": "float32"}, {"name": "inception_4e_3x3_bn2/moving_mean", "shape": [256], "dtype": "float32"}, {"name": "inception_4e_3x3_bn2/moving_variance", "shape": [256], "dtype": "float32"}, {"name": "inception_4e_3x3_conv1/kernel", "shape": [1, 1, 640, 160], "dtype": "float32"}, {"name": "inception_4e_3x3_conv1/bias", "shape": [160], "dtype": "float32"}, {"name": "inception_4e_3x3_conv2/kernel", "shape": [3, 3, 160, 256], "dtype": "float32"}, {"name": "inception_4e_3x3_conv2/bias", "shape": [256], "dtype": "float32"}, {"name": "inception_4e_5x5_bn1/gamma", "shape": [64], "dtype": "float32"}, {"name": "inception_4e_5x5_bn1/beta", "shape": [64], "dtype": "float32"}, {"name": "inception_4e_5x5_bn1/moving_mean", "shape": [64], "dtype": "float32"}, {"name": "inception_4e_5x5_bn1/moving_variance", "shape": [64], "dtype": "float32"}, {"name": "inception_4e_5x5_bn2/gamma", "shape": [128], "dtype": "float32"}, {"name": "inception_4e_5x5_bn2/beta", "shape": [128], "dtype": "float32"}, {"name": "inception_4e_5x5_bn2/moving_mean", "shape": [128], "dtype": "float32"}, {"name": "inception_4e_5x5_bn2/moving_variance", "shape": [128], "dtype": "float32"}, {"name": "inception_4e_5x5_conv1/kernel", "shape": [1, 1, 640, 64], "dtype": "float32"}, {"name": "inception_4e_5x5_conv1/bias", "shape": [64], "dtype": "float32"}, {"name": "inception_4e_5x5_conv2/kernel", "shape": [5, 5, 64, 128], "dtype": "float32"}, {"name": "inception_4e_5x5_conv2/bias", "shape": [128], "dtype": "float32"}, {"name": "inception_5a_1x1_bn/gamma", "shape": [256], "dtype": "float32"}, {"name": "inception_5a_1x1_bn/beta", "shape": [256], "dtype": "float32"}, {"name": "inception_5a_1x1_bn/moving_mean", "shape": [256], "dtype": "float32"}, {"name": "inception_5a_1x1_bn/moving_variance", "shape": [256], "dtype": "float32"}, {"name": "inception_5a_1x1_conv/kernel", "shape": [1, 1, 1024, 256], "dtype": "float32"}, {"name": "inception_5a_1x1_conv/bias", "shape": [256], "dtype": "float32"}, {"name": "inception_5a_3x3_bn1/gamma", "shape": [96], "dtype": "float32"}, {"name": "inception_5a_3x3_bn1/beta", "shape": [96], "dtype": "float32"}, {"name": "inception_5a_3x3_bn1/moving_mean", "shape": [96], "dtype": "float32"}, {"name": "inception_5a_3x3_bn1/moving_variance", "shape": [96], "dtype": "float32"}, {"name": "inception_5a_3x3_bn2/gamma", "shape": [384], "dtype": "float32"}, {"name": "inception_5a_3x3_bn2/beta", "shape": [384], "dtype": "float32"}, {"name": "inception_5a_3x3_bn2/moving_mean", "shape": [384], "dtype": "float32"}, {"name": "inception_5a_3x3_bn2/moving_variance", "shape": [384], "dtype": "float32"}, {"name": "inception_5a_3x3_conv1/kernel", "shape": [1, 1, 1024, 96], "dtype": "float32"}, {"name": "inception_5a_3x3_conv1/bias", "shape": [96], "dtype": "float32"}, {"name": "inception_5a_3x3_conv2/kernel", "shape": [3, 3, 96, 384], "dtype": "float32"}, {"name": "inception_5a_3x3_conv2/bias", "shape": [384], "dtype": "float32"}, {"name": "inception_5a_pool_bn/gamma", "shape": [96], "dtype": "float32"}, {"name": "inception_5a_pool_bn/beta", "shape": [96], "dtype": "float32"}, {"name": "inception_5a_pool_bn/moving_mean", "shape": [96], "dtype": "float32"}, {"name": "inception_5a_pool_bn/moving_variance", "shape": [96], "dtype": "float32"}, {"name": "inception_5a_pool_conv/kernel", "shape": [1, 1, 1024, 96], "dtype": "float32"}, {"name": "inception_5a_pool_conv/bias", "shape": [96], "dtype": "float32"}, {"name": "inception_5b_1x1_bn/gamma", "shape": [256], "dtype": "float32"}, {"name": "inception_5b_1x1_bn/beta", "shape": [256], "dtype": "float32"}, {"name": "inception_5b_1x1_bn/moving_mean", "shape": [256], "dtype": "float32"}, {"name": "inception_5b_1x1_bn/moving_variance", "shape": [256], "dtype": "float32"}, {"name": "inception_5b_1x1_conv/kernel", "shape": [1, 1, 736, 256], "dtype": "float32"}, {"name": "inception_5b_1x1_conv/bias", "shape": [256], "dtype": "float32"}, {"name": "inception_5b_3x3_bn1/gamma", "shape": [96], "dtype": "float32"}, {"name": "inception_5b_3x3_bn1/beta", "shape": [96], "dtype": "float32"}, {"name": "inception_5b_3x3_bn1/moving_mean", "shape": [96], "dtype": "float32"}, {"name": "inception_5b_3x3_bn1/moving_variance", "shape": [96], "dtype": "float32"}, {"name": "inception_5b_3x3_bn2/gamma", "shape": [384], "dtype": "float32"}, {"name": "inception_5b_3x3_bn2/beta", "shape": [384], "dtype": "float32"}, {"name": "inception_5b_3x3_bn2/moving_mean", "shape": [384], "dtype": "float32"}, {"name": "inception_5b_3x3_bn2/moving_variance", "shape": [384], "dtype": "float32"}, {"name": "inception_5b_3x3_conv1/kernel", "shape": [1, 1, 736, 96], "dtype": "float32"}, {"name": "inception_5b_3x3_conv1/bias", "shape": [96], "dtype": "float32"}, {"name": "inception_5b_3x3_conv2/kernel", "shape": [3, 3, 96, 384], "dtype": "float32"}, {"name": "inception_5b_3x3_conv2/bias", "shape": [384], "dtype": "float32"}, {"name": "inception_5b_pool_bn/gamma", "shape": [96], "dtype": "float32"}, {"name": "inception_5b_pool_bn/beta", "shape": [96], "dtype": "float32"}, {"name": "inception_5b_pool_bn/moving_mean", "shape": [96], "dtype": "float32"}, {"name": "inception_5b_pool_bn/moving_variance", "shape": [96], "dtype": "float32"}, {"name": "inception_5b_pool_conv/kernel", "shape": [1, 1, 736, 96], "dtype": "float32"}, {"name": "inception_5b_pool_conv/bias", "shape": [96], "dtype": "float32"}]}]}